models/baseline.pth (torch_old, 213191 bytes, 12 tensors)

weight f4 [12, 3, 4, 4]
000000 0d 29 93 3c 1a 04 b3 bd 5a 85 24 be 89 89 7f bd
       0.01796391 -0.08741017 -0.16066495 -0.062387023
000010 05 37 5a bd 21 e0 fe bd 9d 86 cc bd 7a 39 2b be
       -0.053275127 -0.12445093 -0.09986613 -0.16721144
000020 9a 10 42 bd 3b eb 21 bd 1a 50 df bd b2 12 bb bd
       -0.047379114 -0.039530974 -0.1090395 -0.09134425
000030 46 8b 45 3d 39 5f 50 bd ab 72 8b bd 66 05 6d 3c
       0.048228525 -0.05087206 -0.068089806 0.014466619
000040 0a ed 3c 3d 7f c4 83 3d 18 a7 6b bd 6f c1 e0 3d
       0.046124496 0.06433963 -0.0575324 0.109743945
000050 58 d1 9c 3c b2 56 b8 bd cf e6 1b be 72 7b 9b bd
       0.019142792 -0.09000911 -0.15224765 -0.07591905
000060 69 d6 09 3d b5 cf 3e 3d 51 62 b7 bd 5c 7f 6e 3d
       0.033651743 0.046584804 -0.08954299 0.058226928
000070 6c 78 d7 bb e6 ed 2c 3d 9e 63 48 3c be 10 74 3d
       -0.0065756347 0.042219065 0.012230782 0.05958628
000080 de 9b 3b bd 17 ab a4 3d 5b 93 a6 bc e3 00 18 3d
       -0.045802943 0.08040445 -0.020333936 0.03711022
000090 2e 5e 65 3d 7a 95 93 bd 7b e5 00 be 76 fc 48 3b
       0.05599802 -0.07206245 -0.1258754 0.0030668057
0000a0 d9 d6 56 3d 8b cb 57 3d 21 cc 98 bd 90 22 b1 3d
       0.05245099 0.052684348 -0.074608095 0.086491704
0000b0 96 fe ae bd 97 f4 52 3d 56 17 3d 3d 64 7a 13 bd
       -0.08544652 0.05150279 0.046164833 -0.036005393
0000c0 76 f0 02 3d 27 09 a9 3c b4 46 f6 3c 23 ad c9 3c
       0.031967603 0.020634247 0.03006301 0.02461869
0000d0 37 85 de 3c 25 3a f3 bd 50 12 08 be 32 d8 90 3d
       0.027163131 -0.118763246 -0.13288236 0.07072486
0000e0 c2 f8 39 bd 82 26 de be eb c1 89 be fe 05 20 bc
       -0.04540325 -0.43388754 -0.2690576 -0.009767054
0000f0 44 c6 9f 3d 80 5c 99 bc e6 32 5a bb 78 51 78 3d
       0.07801488 -0.018720865 -0.0033294498 0.06062457
000100 d2 80 fc 3c 5c d2 6f 3d dd 3b fe 3c 04 b7 5d bc
       0.030823145 0.058550224 0.031034404 -0.013532404
000110 07 a4 08 3c fc 36 60 bd 47 c7 b3 bd 5e 6c 56 3d
       0.008339888 -0.054739937 -0.087782435 0.05234944
000120 85 d2 12 bd 7e 29 a2 be 3e 0f 32 be c7 66 24 3d
       -0.0358453 -0.3167228 -0.17388627 0.04013708
000130 03 55 19 3b 63 3a 79 bb d2 ca 43 3c 3a d7 04 3d
       0.0023396618 -0.0038029186 0.011950212 0.03243182
000140 af 69 8d bc 21 de 84 3d 41 41 cf 3c 09 12 8e 3d
       -0.017262308 0.0648768 0.02529967 0.06937034
000150 9c 38 ef 3c 19 37 7e 3c d6 1c 88 bd d8 25 26 3d
       0.029201798 0.015516066 -0.06646125 0.040563434
000160 e6 4c 7e 3d de a6 04 be a4 1e 9c bd 69 33 66 3d
       0.062085055 -0.1295428 -0.07623032 0.056201372
000170 aa ca 31 bc 61 d3 6b 3d ed e0 06 3d 60 d5 c8 3c
       -0.0108515415 0.057574634 0.03292935 0.024515808
000180 d5 a7 81 3b 80 e1 13 3d 13 96 08 bc 0e 6c 10 3d
       0.0039567747 0.036103725 -0.008336562 0.0352593
000190 5c e1 18 bd 01 9f 22 be 1b 56 00 be e3 99 ac 3a
       -0.037324294 -0.15880968 -0.12532847 0.001316842
0001a0 7f 54 32 bc 12 b8 2f be c2 c7 56 be ad 22 42 3d
       -0.010884403 -0.17160061 -0.20974639 0.04739635
0001b0 5a 79 dc bc 3e 68 fe bc 38 fe 1b bd 49 35 7e bc
       -0.026913334 -0.031055566 -0.03808424 -0.015515634
0001c0 bd e5 37 3d fb b0 25 3d b9 99 ee 3c ad 05 00 3d
       0.04489683 0.040451985 0.029126035 0.031255413
0001d0 35 2e 06 3d 03 5e c0 bd 89 28 4b bd de 36 53 3d
       0.03275891 -0.09392931 -0.049599204 0.051565997
0001e0 18 ad 82 bd ea c3 6f be 5e d0 45 be bc c3 25 3d
       -0.06380671 -0.23414579 -0.19317767 0.04046987
0001f0 dc a3 68 3c f2 ac d2 bc c1 49 03 3d 85 ca a4 3d
       0.014199223 -0.025717232 0.03205276 0.0804644
000200 d3 0f 9d bb dd 0e 6c 3d e7 6b 43 3d f4 9b 0a bd
       -0.004793146 0.057631362 0.047710326 -0.033840135
000210 7a 69 a0 3d 1d be bb 3c 46 c4 84 3d dd 32 8e 3d
       0.07832618 0.022917802 0.06482749 0.06943295
000220 47 62 16 bd 05 7c 1a be 8e d4 af bd 0c e4 01 3d
       -0.03671482 -0.15086372 -0.085854635 0.031711623
000230 07 67 51 3d 07 bc 41 bb 4f 18 30 3d a0 19 cd 3c
       0.051123645 -0.0029561536 0.042991932 0.025036633
000240 05 b6 1b bc 36 34 dd bc 26 2d 19 bd 16 96 84 bc
       -0.009503846 -0.027002435 -0.037396573 -0.016184848
000250 74 6e b1 3b 8f 46 fd 3d 28 af c9 3d 88 74 38 3d
       0.0054147784 0.123669736 0.098478615 0.045033008
000260 f9 ef 91 bd 75 f3 05 bd 76 86 70 3c ce c9 94 bd
       -0.07125849 -0.03270288 0.0146804955 -0.07265054
000270 aa af 95 3d b9 6a 72 bd a4 61 67 bd b2 28 12 3d
       0.07308896 -0.05918381 -0.0564896 0.03568334
000280 f3 e8 1b bd fb b8 a6 bc bc 24 da 3b ce 38 eb bc
       -0.038063955 -0.020351877 0.006657211 -0.02871361
000290 de c8 01 3c cc fe bb 3d df 0d a9 3d 6e 55 e9 3c
       0.007921426 0.09179458 0.08254599 0.028483119
0002a0 48 54 7b bd 3c f5 34 bd 63 de 15 3d d1 31 55 bd
       -0.061359674 -0.044179186 0.036589038 -0.05204946
0002b0 38 b9 1f 3d 35 d0 11 bd 46 0d be ba 6e 9d 92 bc
       0.038994998 -0.035598952 -0.0014499805 -0.017897334
0002c0 bf 30 dc bc 6a 97 97 3d af ef 0a 3e 81 94 a5 3b
       -0.026878713 0.07401927 0.13567995 0.0050531034
0002d0 ca 5e 23 3d d5 c8 1c 3e cd e9 3e 3e 3c c7 b6 3d
       0.03988532 0.15310986 0.18643875 0.0892472
0002e0 5a 68 52 3d 6d b6 a9 3d 74 36 50 3e ab f6 d4 3d
       0.05136905 0.08286748 0.20333272 0.10398611
0002f0 ac 42 57 bd 5d 0c 0c 3c 9f e6 95 3d af 30 7b bd
       -0.052553818 0.0085478695 0.07319378 -0.061325725
000300 86 69 a7 bc 29 69 79 bb 42 0b 4d 3c 96 2f 21 bd
       -0.02043606 -0.0038057065 0.012514891 -0.039352022
000310 24 0b 82 3c dc 63 2c 3e a2 6a 15 3e 01 54 01 bd
       0.015874453 0.16834968 0.14591458 -0.031574253
000320 9d 7c 97 3d cb 18 b2 3e e5 fa 8d 3e b8 6b 1c 3c
       0.07396815 0.3478454 0.2773048 0.0095471665
000330 78 0e e3 bc 82 6a 8f 3d 6d c6 46 3d 51 32 ef bc
       -0.02771686 0.07002737 0.048529077 -0.029198797
000340 08 8f 82 bd 4e 34 84 bd c3 1e 33 bd 79 68 bf bc
       -0.06374937 -0.06455289 -0.04373051 -0.023365246
000350 88 31 b7 bc 59 bd f2 3d 81 b3 cf 3d 0d a9 7c bd
       -0.022362486 0.118525214 0.101416595 -0.061684657
000360 fb 14 87 3d f9 40 a8 3e 7f 62 75 3e 2c d3 38 bd
       0.065957986 0.3286207 0.23963355 -0.045123264
000370 84 11 08 bd a5 98 06 3d 73 bb c6 bc 68 bb 9f bd
       -0.03321983 0.032860417 -0.024259305 -0.07799417
000380 b9 e5 ff 3c 09 bf bb bd 5f 35 9b bd a6 c0 4e 3c
       0.03123747 -0.091672964 -0.07578539 0.012619173
000390 08 8f bc bd 31 a4 00 3b 48 e4 e8 bb 18 b3 b3 bd
       -0.092069685 0.0019629116 -0.0071072914 -0.08774394
0003a0 d2 8d a2 bc 35 8a 5f 3e 91 29 12 3e 86 52 97 bd
       -0.019843016 0.21830066 0.14273669 -0.07388787
0003b0 58 56 e3 bc 57 9f 0b bd b1 b2 a0 bd b2 06 93 bc
       -0.027751133 -0.034087505 -0.07846583 -0.017947529
0003c0 e7 a8 64 bd 40 af 55 3d 4b 2c a0 3c 4e 53 2b 3d
       -0.05582514 0.052169085 0.01955237 0.041827492
0003d0 ec 32 fb 3b 74 9a c3 3d f9 25 65 be 03 6d cf 3c
       0.0076659825 0.09550944 -0.22377767 0.025320536
0003e0 81 42 4c bc 26 01 f6 3d 2a 63 64 3e 86 d1 03 3e
       -0.012467028 0.12011938 0.22303453 0.12872896
0003f0 e1 28 22 bb 66 28 91 bd d0 90 91 3d 4e 30 88 bd
       -0.0024743604 -0.070877835 0.07107699 -0.066498384

bias f4 [12]
000000 9f 5a 19 bf 60 a4 d2 3e 55 1e bf 3e 30 5c 21 bf
       -0.599039 0.41141033 0.3732783 -0.6303129
000010 e3 aa 0e bf a4 dc 20 3f 13 df 05 bf 93 b2 fb 3e
       -0.557295 0.6283667 -0.5229351 0.4915968
000020 f2 37 47 3f 30 1c 18 bf 27 0f f5 3e fb 36 24 3f
       0.7781974 -0.5941801 0.47863123 0.64146394

weight f4 [24, 12, 4, 4]
000000 bc fd 02 3d 4f 64 9b bc 7f f3 dc 3c f9 1f ec 3c
       0.03198026 -0.01896873 0.026971577 0.02882384
000010 5f 60 ab 3e 79 64 21 3f 15 33 a3 3e c2 72 25 bd
       0.33471963 0.63043934 0.3187491 -0.040392645
000020 8d 29 cb 3d 64 82 58 3e f3 41 78 3e 36 02 da 3c
       0.099200346 0.2114349 0.24243908 0.026612382
000030 0e fb d2 3d 91 c0 7c 3d 11 51 f8 3d d7 8c 5d 3b
       0.10301791 0.061707083 0.12124837 0.003380587
000040 ed 3f be 3c 54 63 3a 3d 32 73 b4 bc 9e 19 e0 bb
       0.023223842 0.045504883 -0.022027586 -0.0068389913
000050 cb 12 02 3c ec c2 53 3c 15 33 db bd 68 6e 94 3c
       0.007939051 0.012924891 -0.107031025 0.018119052
000060 8b ac 96 3d e8 4b 1c be c8 7b 3e 3e 3e 91 05 3d
       0.07357129 -0.15263331 0.18601906 0.032609217
000070 92 8a 84 bb 56 c1 ab 3d 2d 15 2b bd 30 be a7 3c
       -0.004044839 0.08386485 -0.04176824 0.02047643
000080 e0 28 d0 bb fb a3 74 bd b9 ef 09 be 32 2f a4 bd
       -0.006352529 -0.059726696 -0.13470353 -0.08016814
000090 0a f8 85 bd 4a c5 15 3e f6 de 42 be a3 89 e0 bd
       -0.0654145 0.14626041 -0.19030365 -0.10963752
0000a0 9d cb e4 3c 5f c9 24 be b0 63 aa 3d 59 de 3d bd
       0.027929122 -0.16092442 0.08319795 -0.046354625
0000b0 30 70 49 3c b3 67 15 3d 23 8c 19 bd e9 b8 93 bc
       0.012294814 0.03647585 -0.03748716 -0.018032508
0000c0 2b a3 c1 bd b4 7c 9a 3d 3d 5d c8 bd d9 99 83 bc
       -0.0945495 0.075433165 -0.09783409 -0.016064571
0000d0 b9 9d 16 3d 2d de f8 be 3f 3d 8f be e6 13 1f 39
       0.03677151 -0.48607007 -0.27976415 0.00015170834
0000e0 7e 8f 85 be c3 4c ac 3e 68 90 91 be 25 93 7d bd
       -0.26086038 0.33652315 -0.28430486 -0.061907906
0000f0 52 42 e2 bd fe 98 5f bd c3 af 28 be 20 43 04 3d
       -0.11047806 -0.054589264 -0.16473298 0.032290578
000100 b6 f0 3e bd 72 af 9c 3d c0 7e 00 3e 17 df dd 3d
       -0.04661628 0.07650651 0.12548351 0.10833567
000110 e2 50 1b 3d f0 6c 2c 3e 5e a9 f9 3e e3 63 ff 3d
       0.037918933 0.16838431 0.4876203 0.12470224
000120 e1 df d3 bd 4d 0d 21 3f ff 50 a0 bd 57 09 86 3d
       -0.10345436 0.6291092 -0.07827949 0.0654475
000130 91 fb 6e 3a 67 a9 66 bd 23 83 0c 3e 52 48 3c 3c
       0.0009116466 -0.0563139 0.137219 0.011491852
000140 30 ba 4a bd 51 04 07 be 4e 3e af bd a2 2f 24 3d
       -0.04949397 -0.1318524 -0.085568056 0.04008449
000150 e8 9d 8a 3d 0e 3b 34 3e 1d 79 65 3e d4 3a c1 bd
       0.067683995 0.17600653 0.22409482 -0.09435049
000160 74 38 30 bd 3d a2 53 bc f5 d4 aa bd 12 45 51 3d
       -0.043022588 -0.012917099 -0.083413996 0.05109126
000170 19 52 bb bd 91 12 13 bd 9e 56 52 bc ab b4 34 bd
       -0.09146518 -0.03590638 -0.012838034 -0.04411761
000180 d8 28 fd bc 56 e1 96 bd 63 51 0e be da 46 c3 bd
       -0.030903265 -0.07367198 -0.13898234 -0.09534998
000190 e5 8d 62 bd d3 c0 be be d0 bd 16 bf 7c 40 52 be
       -0.055311102 -0.37256488 -0.5888338 -0.20532411
0001a0 e2 13 59 3e b2 32 2b bf fa e0 ae 3e 23 88 82 bd
       0.21198991 -0.6687423 0.34156018 -0.06373622
0001b0 87 fa e9 3c 35 9f 3a 3e 92 84 b6 bd 5a 17 88 3b
       0.028561844 0.18224795 -0.089120045 0.0041531743
0001c0 56 9b 2b bc 8d 41 c7 3c 03 9b e8 bc 19 75 3d bd
       -0.010474047 0.02432325 -0.028394228 -0.04625425
0001d0 3e 9b 90 bd 0a 6a a5 3e 5e d3 2e 3e 6f 3c 6c 3d
       -0.0706086 0.32307464 0.17072818 0.05767482
0001e0 c4 c5 41 3e 09 06 09 3e 1a 28 90 3e 36 87 79 3d
       0.18923098 0.13381208 0.28155595 0.060919963
0001f0 1e 34 da 3c 39 79 8c 3d f3 2a 45 3d d4 df c7 bc
       0.02663618 0.06859059 0.048136663 -0.024398722
000200 30 09 80 bd 2e f1 0a bd ce ba bc bc 7c fc 55 bd
       -0.062517524 -0.033921413 -0.023038294 -0.05224274
000210 13 f6 f8 bc e3 99 ad be 22 9f 5a be 8d 64 f0 3c
       -0.030390775 -0.3390647 -0.21349767 0.029344821
000220 ac c5 07 3d 39 2d 35 be f9 44 5a 3d 80 dc 0d bd
       0.0331475 -0.17693032 0.053288434 -0.034634113
000230 fe dd 8c bd e6 23 96 3d 17 0f 8c bc 80 8e 7b bc
       -0.06878279 0.07331066 -0.01709704 -0.015353799
000240 a7 b3 b6 3d a6 90 c0 3d c3 8d f4 3d 67 86 d9 3d
       0.08920985 0.094025895 0.119411014 0.10621338
000250 26 ce 0f 3d c2 1a 1e 3f fb 45 b2 3e 64 7f d6 3d
       0.035108708 0.6175958 0.34819016 0.104735166
000260 28 95 31 3e 8e 30 5c 3e 20 1d ec 3e 69 96 84 3d
       0.17342055 0.21502897 0.4611597 0.06474001
000270 f7 5d ba 3d ae 89 4b 3e 5d 1b 49 3e fb 26 58 3d
       0.090999536 0.1987674 0.19639345 0.05277155
000280 28 2d bd bb b5 9f 00 3e 24 7c e7 3d 0f 4c e6 bc
       -0.0057732053 0.12560923 0.11302975 -0.02811244
000290 3a eb e6 3d 54 26 b3 3d 89 bf 76 3e 71 77 8a 3d
       0.11275335 0.08747545 0.24096502 0.06761063
0002a0 11 12 ef bc 17 09 13 3f 99 1d 5e 3e 81 5f d0 3d
       -0.02918342 0.57435745 0.21690978 0.10174466
0002b0 4e 53 0e bc 19 76 8b 3d e6 c3 85 3d 38 7c 6c bd
       -0.008686854 0.06809635 0.06531505 -0.05773565
0002c0 b3 8c 5a 3c ca 2d 48 3e 8e c1 27 3d be 97 cf bb
       0.013339209 0.19548717 0.040956073 -0.0063352278
0002d0 d5 3c 73 bc 35 8c 1e be 02 09 00 bd 8e 2a 11 bd
       -0.014846046 -0.15483172 -0.03125859 -0.035440974
0002e0 30 66 0a be 02 5a 89 3e a4 ed 5d 3d dd 86 a4 bd
       -0.13515544 0.26826483 0.05418171 -0.08033536
0002f0 ae 63 09 3d 8e 20 3c 3d 89 28 31 3d 44 37 1a bd
       0.033542328 0.045929484 0.043251548 -0.03765036
000300 31 8e 8a bb fe 35 87 bd 8e 26 55 3a 0d db d4 3b
       -0.0042283763 -0.06602095 0.000813105 0.0064958395
000310 c6 13 72 bd b5 e2 04 be 45 91 ca bd ed 41 3a bd
       -0.05910089 -0.12977107 -0.09890989 -0.045473028
000320 45 3c 1b bd eb e2 11 3e 66 0d dd 3e 48 a2 dc 3e
       -0.037899274 0.14246719 0.43174285 0.4309256
000330 bb 55 ea bc e2 18 ab bd 2b 77 d9 3e 1b 9e 13 3e
       -0.028605333 -0.083543554 0.4247373 0.14415781
000340 7c 3f fa ba 1a f0 a0 3c df 40 3b bd 48 7d a6 bb
       -0.0019092406 0.01964574 -0.045716163 -0.0050808527
000350 a2 a3 16 3d 45 e8 5e b9 86 9c 37 bc 1c a7 95 be
       0.036777146 -0.00021258097 -0.011206752 -0.29229057
000360 05 29 d0 bc 87 45 35 3c 5e b9 28 bf ae 30 9f be
       -0.025410185 0.01106394 -0.6590785 -0.31091827
000370 b7 b0 0e 3c 3b df 95 bb da eb 77 bd c6 b6 c5 bd
       0.008709124 -0.0045737303 -0.06052766 -0.09654002
000380 8c 7f 3c 3b 40 e3 a5 bc 8b a6 82 3c fb a1 1c bc
       0.0028762547 -0.020249963 0.015948555 -0.0095601035
000390 51 aa b8 bc b2 81 44 bd 58 25 f8 bd 67 a9 a1 3e
       -0.02254215 -0.04797525 -0.12116498 0.31574556
0003a0 a5 37 0d 3d 1a f1 a0 bc 31 8f 8c 3e cf f5 f6 3d
       0.034476895 -0.019646216 0.27452996 0.12058603
0003b0 9c 1b 8d bc af 18 17 3b 94 0e 57 bc 36 e9 d5 3d
       -0.01722508 0.0023055484 -0.013126034 0.10444872
0003c0 6b 21 40 3d 4c 71 b7 3b 37 ca 4e bd 68 3f 57 bd
       0.04690687 0.005598223 -0.050485816 -0.052550703
0003d0 2d 8b a4 bc b4 35 28 be fe bd b4 bd 99 5b 0e bc
       -0.020085895 -0.16426736 -0.08825301 -0.008688831
0003e0 bf d8 4d bd b9 06 98 bd 07 7d f9 3e f4 3c 65 3e
       -0.050255533 -0.07423157 0.487282 0.22386533
0003f0 72 86 25 bd 28 1f 33 be eb 05 98 bd 4d eb bf 3c
       -0.04041142 -0.17492354 -0.07423004 0.02342763

bias f4 [24]
000000 fd f5 8e 3e 5f f0 bf bd 7f ba 24 bb 2c d4 ef 3d
       0.2792205 -0.09372019 -0.0025135574 0.117103904
000010 03 dd c9 3d fd 7c 06 3e e8 27 d2 ba f3 b3 a7 bd
       0.09856608 0.13133617 -0.0016033622 -0.081886195
000020 00 ef 03 bb 05 38 79 3d 77 98 0d 3e db 1e c4 3d
       -0.0020131469 0.06084444 0.13827692 0.09576198
000030 7a 08 89 3d 54 02 08 3e 27 55 91 bb 7a 47 02 bd
       0.0669107 0.13282138 -0.0044352 -0.031806447
000040 7c f9 c8 be 80 24 56 bd 71 ff 9f 3d 05 3b 9f 3d
       -0.3925284 -0.052280903 0.078123935 0.07774929
000050 ff ad a2 bd 8b 0a 75 3c 07 64 78 3e ea 22 be 3d
       -0.07943343 0.014956127 0.24256907 0.09284003

weight f4 [48, 24, 4, 4]
000000 4b a8 a0 bc 15 31 ef bc 6d 20 80 bc e6 ca 26 3c
       -0.019611498 -0.029198209 -0.015640462 0.010180211
000010 5e dc 5d bc 19 0a e1 bd 6d b5 9c bc ea d6 f5 bc
       -0.013541309 -0.10988254 -0.01912948 -0.030009706
000020 d5 d6 19 bd 62 62 79 3e d4 07 6f be a4 b4 dd 3b
       -0.037558395 0.24353936 -0.2334283 0.006765919
000030 8f 92 d7 3c 3b 56 00 bd 49 d7 35 3d 5f 72 24 bc
       0.026315002 -0.031332236 0.044394765 -0.010037034
000040 e3 ad a6 3c b3 48 1c 3d ed a8 0e be 2b ae 85 3c
       0.020346588 0.03815527 -0.13931628 0.016318401
000050 9f 86 c0 bc 82 c4 e9 3d 56 d8 11 be 77 dc d3 3b
       -0.023501692 0.11414434 -0.14242682 0.0064654904
000060 1b 38 84 3d 36 1e 8d bd 60 d0 46 3e 52 d0 e6 3b
       0.06456014 -0.06890528 0.19415426 0.0070438767
000070 5f ed 0a 3d f1 0f 06 bd 1e f9 c6 bc db 4d e4 3c
       0.03391778 -0.032730047 -0.02428871 0.027869156
000080 da 91 7e bb dc 94 b6 bd 9d 11 2c bc 1b 1e fc b8
       -0.0038844259 -0.089151114 -0.010502246 -0.00012021904
000090 ef 73 18 bd 87 b3 ae bd 68 cc 2d 3d 37 e8 ce 3b
       -0.037219938 -0.08530336 0.042431265 0.0063143033
0000a0 f6 bc 70 bc 92 20 97 bd fc 54 d4 3d 0e 43 47 bd
       -0.014693489 -0.07379259 0.10367772 -0.048647933
0000b0 b1 dc 7c bc 52 83 a0 bc d8 49 57 bd c5 2b 64 3c
       -0.015433476 -0.019593868 -0.052560657 0.013926451
0000c0 07 fe 97 bc 6d 1f c2 bc 17 4e 07 bd 2f 1e 8c 3b
       -0.018553747 -0.023696626 -0.033033457 0.004276059
0000d0 ed fe be 3c 08 8f bf 3e 9a ae 43 be 99 4e c8 3c
       0.023314917 0.37413812 -0.19109574 0.02445154
0000e0 6f 78 e0 bb f2 bb 66 3c 92 b5 61 be 2d b8 37 3d
       -0.0068502943 0.014082896 -0.2204192 0.044853378
0000f0 6f b8 d4 3c 48 47 5c bd 65 8d fa 3c 70 7b 9f 3c
       0.025966851 -0.053778917 0.030585 0.01946804
000100 55 fe c7 3c a9 f0 67 3b 98 5b 66 bb e8 ec 1a bc
       0.024413267 0.0035391247 -0.003514981 -0.009455897
000110 32 ed c3 3c c9 50 4a 3c c9 86 0a 3e ed 05 41 bc
       0.023916814 0.012348362 0.13527979 -0.011781198
000120 bd 6e 00 bd 2b 68 20 bc f2 28 33 3e 69 30 51 3c
       -0.03135561 -0.009790461 0.17496088 0.01276789
000130 6b af c1 bb d9 80 29 3d 01 35 30 3c d5 8e 84 3b
       -0.005910804 0.041382644 0.010754825 0.004045347
000140 91 e2 4e bc 99 9c 07 bd 0e 47 8d 3d 68 25 c4 bb
       -0.01262726 -0.033108328 0.06898318 -0.0059859045
000150 73 26 ee 3c da 4c af 3d 2f 73 98 bc 70 88 fd 3c
       0.029071068 0.0855958 -0.018609611 0.030948848
000160 0f 33 86 bd 13 ef 6b 3d 62 b2 48 bd c1 2c 5c 3b
       -0.065527074 0.057601046 -0.048998244 0.0033596011
000170 7f 51 43 bc d3 b1 98 bb 53 91 46 3d e5 52 43 bc
       -0.011921286 -0.00465987 0.048478436 -0.011921619
000180 96 67 af bb 21 b7 8b bd 1e b5 78 3c 80 ba 49 3c
       -0.0053529246 -0.068220384 0.0151799 0.0123125315
000190 c4 42 a2 3b d9 0a ef 3c 97 72 88 3d 11 7f 97 3d
       0.0049518067 0.029179977 0.06662481 0.07397283
0001a0 19 98 8d ba 23 71 00 3d f6 bd bd 3e d6 2b a2 bc
       -0.0010802775 0.031357896 0.3705899 -0.019796293
0001b0 21 a9 64 bc 68 08 30 bd 29 9e 6f 3c 4e 7c 5b bc
       -0.013956339 -0.042976767 0.014625111 -0.013396336
0001c0 72 67 84 3c de 1f 2e bd d5 dd d4 bb fa c1 f7 3c
       0.016162608 -0.04251086 -0.006496171 0.030243862
0001d0 95 bb 09 3c b9 90 9a bd 93 27 ad 3d c4 71 62 3d
       0.008406539 -0.07547135 0.08454814 0.055284277
0001e0 c4 82 60 3c 5e 7e f9 3d 06 e4 69 be 46 80 c7 3b
       0.013703052 0.12182306 -0.2284089 0.0060882894
0001f0 45 b9 13 bd e3 68 67 3c 88 ea 7c bd 33 59 92 bc
       -0.03606536 0.014124128 -0.061747104 -0.0178648
000200 1b 18 35 3c bb 07 45 bc 0d df 16 3d 08 09 52 bc
       0.0110531105 -0.012025769 0.03683381 -0.012819536
000210 ae fb 34 3c ba 3d 4f 3d 59 8c 11 3e 75 95 27 bc
       0.011046333 0.050595976 0.14213695 -0.010228504
000220 d0 02 c1 bb b4 05 18 3e 78 25 4f 3e 97 14 d9 ba
       -0.005890228 0.14845926 0.20229137 -0.0016561922
000230 6e 60 ad ba c0 7a 0e 3d 0e 7c 09 3d 8d d8 05 3d
       -0.0013227591 0.034785032 0.033565573 0.032677222
000240 89 85 e0 3c 5f da 75 3d 5a d6 b7 3c 17 b2 53 bd
       0.027407425 0.060022708 0.022441078 -0.05168351
000250 e3 d6 95 bc e4 bd 5a bd 24 84 09 be 3a df b9 bc
       -0.018290943 -0.05340375 -0.13429314 -0.02268945
000260 4d e9 e7 3c 7d 9c b2 bd 18 1d 00 be 0a 4e ac bd
       0.028309489 -0.08721254 -0.12511098 -0.08413322
000270 31 4b 72 3c db 8b 2a bd 3b 23 af bc f8 b5 80 bc
       0.014788435 -0.041637283 -0.021379104 -0.01571177
000280 e4 61 cc bc 54 6a 1d bc 7d c8 02 bc 67 27 26 3d
       -0.024949022 -0.00960787 -0.00798237 0.04056492
000290 e1 c1 94 bb 09 60 b3 bc ba 3c a7 3d b3 f8 a3 3c
       -0.0045397137 -0.021896379 0.081658795 0.02001605
0002a0 fe 39 c7 bc 8b ab d8 3d c7 ec e2 3c 80 d0 c7 3b
       -0.024319645 0.10579594 0.027700795 0.006097853
0002b0 7d e5 45 38 a5 b8 04 3d f6 ca c5 bc 8d df 9d bc
       4.7182188e-05 0.032402653 -0.02414463 -0.019271636
0002c0 8d 53 ae 3b ae 16 33 bc a5 b1 8f bc 5f 24 0c 3d
       0.0053200186 -0.0109307 -0.017540762 0.034214374
0002d0 ed 10 f8 bc f5 43 0e 3d 9c ad a2 bc 5d d3 21 bd
       -0.030281508 0.034732778 -0.019858174 -0.039508212
0002e0 46 43 ab 3c 8a 1e f8 bd 2f 51 6f 3d 6b 7c 54 bd
       0.020906102 -0.121152 0.058427032 -0.051876467
0002f0 d3 87 d3 3c 1f 2a 0d bc 21 2f 29 bd 97 89 29 3c
       0.025821602 -0.0086159995 -0.04130471 0.010347745
000300 65 3a 7c bc 2a 8d 80 3d 2d 86 15 3e 31 64 c0 bc
       -0.015394782 0.06276925 0.14601965 -0.023485275
000310 22 17 73 3c a7 2d e8 bc b4 8a bf 3d 1c 15 cd bd
       0.014837058 -0.028342081 0.093526274 -0.10013792
000320 a8 d7 4f bc 3b aa a4 3d 0a d6 ce bb 57 ec a7 3d
       -0.012685694 0.080402814 -0.0063121365 0.08199375
000330 c0 e2 fe 3b 97 20 dc 3b bd 74 cb bc 87 ef 42 3c
       0.0077784956 0.006717752 -0.024835939 0.011897928
000340 26 c2 b6 bc 95 b4 a7 3c 84 63 25 3d 61 a4 2e bd
       -0.022309374 0.02047185 0.04037811 -0.042637233
000350 3a 52 fa bc 3f 23 2e be 6b 56 bd 3d 4b 3b 37 3c
       -0.030556787 -0.17005633 0.092449985 0.01118357
000360 14 e6 8a bb 58 d6 8e bc d5 f6 d5 3d 80 7a 11 bc
       -0.004238853 -0.017436191 0.1044747 -0.008879304
000370 d7 07 83 3c c5 bd d7 3c 92 ed 93 3d 63 e6 f0 bc
       0.01599495 0.026335606 0.07223047 -0.029406732
000380 3d 5e 10 bd 56 29 a6 bc 90 b9 62 bc 44 6d 8a 38
       -0.035246123 -0.020283382 -0.013838187 6.600705e-05
000390 c8 49 be 3c 1b 22 55 bd c0 9d a2 3d f5 cd 11 3c
       0.023228541 -0.05203448 0.07940245 0.008899202
0003a0 43 40 c2 bb b7 8f 23 3c d8 10 13 3d ef 00 be 3c
       -0.0059280708 0.009982995 0.035904735 0.023193805
0003b0 43 15 e2 bc 34 35 4a 3b bb 41 5d 3d c9 5a a3 3c
       -0.027598029 0.0030854465 0.054017764 0.01994075
0003c0 f9 2a a8 3b 83 46 c7 3c 3f b8 25 bd ae 2d 37 3c
       0.005132076 0.024325615 -0.040458914 0.0111803245
0003d0 fb 88 20 3b 04 ea 04 be 07 a8 23 bc 6d 0c e1 3d
       0.002449571 -0.12979895 -0.009988791 0.10988698
0003e0 d6 ca 97 3c 8e 45 cd 3d d8 b1 3f 3e 4c 67 82 3c
       0.018529337 0.10023032 0.18720186 0.015918396
0003f0 44 b0 23 bc a3 d3 4e 3c 5e 37 84 3c 1d 1e 49 3c
       -0.0099907555 0.0126237 0.016139682 0.012275246

bias f4 [48]
000000 d7 8c 83 3c cb a2 86 3d 5c f0 8d 3d 08 5d 79 3d
       0.016058369 0.06574019 0.069306105 0.060879737
000010 d2 31 51 3c 0d 31 28 bd fd 37 0b 3d ce 1f ae 39
       0.012768226 -0.041062403 0.03398894 0.00033211563
000020 a7 e7 12 3d 28 9b a6 bd ec f4 98 3d 9d 77 8e 3c
       0.035865452 -0.081350625 0.0746859 0.01739102
000030 ee 0f 92 3c f5 05 24 3e a6 b4 3b bd 38 a7 23 3e
       0.017829861 0.16017897 -0.045826577 0.15981758
000040 f9 c0 d3 3d a3 8b a6 bd 07 91 3a bd c1 cc 46 3c
       0.10339541 -0.08132102 -0.045548465 0.012133778
000050 5f f6 f5 3d 13 af f6 3b 51 fe a2 3d 00 8e 9c bd
       0.12009882 0.0075281947 0.07958663 -0.07644272
000060 08 e8 98 3d 35 70 5d 3d 9a ac 03 3e ea 1f ce bb
       0.074661314 0.054062087 0.12858811 -0.0062904255
000070 43 a3 0c 3e 67 2e cb 3b 62 05 9c 3d ff da 25 3d
       0.13734154 0.0062006 0.07618214 0.040492054
000080 d3 fd 5b 3d 0b da 1f 3d 97 4b 17 bc 9e b9 56 bc
       0.053708863 0.0390263 -0.009234331 -0.013105778
000090 5f d1 ba bd 25 70 54 3d 37 54 11 3d 77 d4 2f bd
       -0.091219656 0.05186476 0.035480704 -0.04292723
0000a0 09 8e 0a 3d 5f 52 87 3a 76 77 91 bd b1 e5 d0 3d
       0.03382686 0.0010324231 -0.071028635 0.1020006
0000b0 06 16 89 3d e1 df b9 bc d6 78 f0 bd 5e c6 bf 3d
       0.06693654 -0.022689762 -0.117417976 0.093640074

weight f4 [48, 24, 4, 4]
000000 1d aa b0 bb 89 e3 89 bb 71 d1 bf bc e9 2b 08 38
       -0.005391373 -0.0042080325 -0.0234153 3.246582e-05
000010 4a f9 54 3c db de de 3d f1 9d 8b bb e2 e0 6f 3c
       0.012998888 0.1088235 -0.0042607714 0.014641019
000020 6b 63 10 3d 77 59 d1 bd 0c a9 e2 3d 15 b4 7c 3a
       0.035251062 -0.10222142 0.110673994 0.00096398714
000030 52 01 c5 bc f6 db 88 bc e0 2c 1e bd c3 71 83 bc
       -0.024048481 -0.016706448 -0.038617015 -0.016045457
000040 6e ad 64 bc 2b 74 dd b9 7d 50 bc 3c d8 40 96 ba
       -0.0139573645 -0.00042238957 0.022987599 -0.0011463417
000050 a5 09 87 bc 49 ce 61 bd b1 b5 53 3c 6e d0 a6 bc
       -0.016484091 -0.05512837 0.012921737 -0.020363059
000060 d1 33 b5 3c 2e d1 f7 bd f5 48 2e be 80 c9 f3 bb
       0.022119435 -0.12100445 -0.17020018 -0.007439792
000070 28 83 28 3c 4f 1e 22 3d e7 a4 23 bc 49 b7 64 bb
       0.010285176 0.039579686 -0.009988046 -0.0034899286
000080 2b 7f 1b 3b f7 fb bb bb 79 14 27 3c 4e b8 87 3b
       0.002372692 -0.0057368237 0.010197752 0.004141844
000090 d2 1e 7c 3d 02 c0 58 3a 1c b7 0d bd 4d 49 3b ba
       0.06155283 0.00082683575 -0.034598455 -0.00071444066
0000a0 b6 8c a8 3c b7 c9 12 3d d5 71 85 be 3f df 1f 3d
       0.020574909 0.0358369 -0.2606341 0.039031263
0000b0 77 06 83 bc ad a3 bf ba 4f 2d 7c bb 90 82 a4 b7
       -0.015994294 -0.0014620923 -0.0038479154 -1.9611121e-05
0000c0 51 0c 60 bb 28 5d a2 3c ef 90 02 bd 7d c1 83 3c
       -0.0034187029 0.019819811 -0.0318765 0.016083473
0000d0 e4 1c db bc 73 72 01 bd 0e cf 18 bd 22 68 9c bb
       -0.026747175 -0.031603288 -0.037306838 -0.004773156
0000e0 e4 aa 06 3d 15 3a 1c 3e a7 63 bc 3d 02 ba e5 3d
       0.032877818 0.15256532 0.09198695 0.11217119
0000f0 cf 44 3a 3c ce 6c 85 3d e4 0c 3a 3d 53 56 ef bc
       0.011368944 0.065148935 0.04542245 -0.029215967
000100 f9 4f 0b bc 21 26 60 bd 30 f0 4c ba 20 d4 b9 3d
       -0.008502954 -0.054723863 -0.0007817773 0.09073663
000110 d1 2d ae b9 97 fe c5 3c d6 36 90 bb a2 40 de 3c
       -0.00033222002 0.02416925 -0.004401068 0.027130429
000120 32 2e 42 bb d9 3e 34 3e 42 26 e2 bb bd 0c a0 bc
       -0.0029629585 0.176021 -0.0069015333 -0.019537324
000130 cf fd 1a bb a7 c2 22 bd b9 6e e9 ba 6a c6 49 bc
       -0.0023649817 -0.039736416 -0.0017809487 -0.012315372
000140 a9 80 a0 3c a7 2e 0c bb 8a e9 fd 3c 6b b9 a8 b7
       0.0195926 -0.0021390112 0.03099515 -2.0113503e-05
000150 f4 91 64 3a e2 98 3d be 35 5c 30 3d 9d e5 6a 3a
       0.00087192585 -0.18515351 0.043056685 0.00089606066
000160 76 98 f5 3c 38 a3 a6 3d 30 34 a9 3d 24 d8 e6 3b
       0.029979926 0.081366 0.08261907 0.007044809
000170 9c c7 9d bc 94 00 21 3c e8 10 b0 bb e4 f0 06 bb
       -0.01926022 0.009826798 -0.005373109 -0.002059036
000180 ae da 7f 3c b6 9c 38 3b 27 7a e8 3b 22 ff d4 3c
       0.015616102 0.002816958 0.00709464 0.026000563
000190 b2 9b 8e bc 4a db 0a 3e aa 08 d4 3d 93 5b 18 3b
       -0.017408226 0.13560215 0.10353215 0.0023247942
0001a0 ca 7f 0f 3d 19 1f 28 3c ba 9d f3 bd ab a7 93 bd
       0.03503398 0.0102613205 -0.11895318 -0.072097145
0001b0 0a 1e f1 3b 90 9b b2 bc 72 14 08 bd f0 11 38 3b
       0.0073583173 -0.021802694 -0.033222623 0.0028086863
0001c0 c9 6b fe ba bd 43 5c 3d 27 c7 12 bc 82 93 83 ba
       -0.0019410785 0.053775538 -0.008958614 -0.0010038468
0001d0 4a eb 2c ba 0c e3 98 3c 7f 1f fc bd 0f f3 7d bc
       -0.000659634 0.018662952 -0.12310695 -0.015499844
0001e0 ee 2b d4 3c 70 2c ed bc 7d 97 36 be 4a 29 aa 3a
       0.025899854 -0.028951854 -0.17831226 0.0012982276
0001f0 b1 01 93 3c a4 c3 34 3b 11 53 dd 3c 24 be 26 bc
       0.017945142 0.0027582431 0.027017148 -0.010177169
000200 1e 03 a9 bb c9 b7 91 bc 24 be 75 3c 47 52 cd 3c
       -0.0051578423 -0.01778783 0.014998946 0.025063647
000210 ff 27 fb bb 54 8e c2 3a 91 62 e2 bd 14 a4 9e 3c
       -0.00766468 0.0014843442 -0.11053956 0.019365348
000220 da 40 57 bb de 42 f3 3d 00 f5 5d be 28 13 48 bd
       -0.003284505 0.11877988 -0.21675491 -0.048846394
000230 3f c3 1e bc 0c 44 94 bd a0 e3 17 b9 37 e5 ce bb
       -0.009690105 -0.072395414 -0.00014485279 -0.0063139456
000240 93 ad 2d bb f1 60 f2 3c ca b3 4c ba 8a bc 49 bd
       -0.0026501163 0.02958724 -0.0007808773 -0.04925207
000250 a7 96 9a bb cf dd 0e 3b f8 d4 b7 bc a5 23 60 bc
       -0.004717666 0.0021799689 -0.022440419 -0.013680373
000260 6a 7e a7 ba cf 47 e2 3c 21 47 da bb ae 6d 4a bd
       -0.0012778763 0.027622132 -0.0066613113 -0.049421005
000270 c2 dd d6 b9 2a 1f fe 3c 40 c7 8e 3a da 27 f4 bc
       -0.00040982483 0.03102072 0.0010893121 -0.029804159
000280 c6 c6 99 3c 40 ca 5d bd a0 23 40 3d df c5 1a bb
       0.01877154 -0.05414796 0.046908975 -0.0023616476
000290 5c 47 a2 bc 91 74 dd bd a8 69 2c 3e 75 24 69 bc
       -0.019809417 -0.10813249 0.1683718 -0.014229883
0002a0 dd 27 94 3b cd b4 3c 3d 6c 31 0e 3d bd 33 96 3c
       0.0045213536 0.046070863 0.0347151 0.018335218
0002b0 d7 51 a7 bc 7f 04 08 3d 27 de aa b9 6b 59 1d bc
       -0.020424766 0.033207413 -0.00032590443 -0.009603838
0002c0 0b 14 ea ba e3 53 22 3d f4 ba 4f b9 eb 1b 0b 3c
       -0.0017858756 0.03963078 -0.00019810704 0.008490543
0002d0 f2 ea 90 ba 4b cd 77 be 71 cc ac ba 0f eb 9c 3a
       -0.0011056347 -0.24199407 -0.0013183487 0.0011971908
0002e0 ba 93 27 bb f1 26 c3 3c 60 e3 10 3b 3e 5c 40 bc
       -0.002557023 0.02382228 0.0022108182 -0.011740742
0002f0 a0 9a 03 3a ac 7f 48 3d 1b 35 17 3b a5 64 d3 3b
       0.00050202943 0.048949882 0.0023072425 0.0064512067
000300 68 54 10 bc 30 73 50 3c 90 ca 56 bd 31 2f 0f 3d
       -0.0088091865 0.012722775 -0.052439272 0.034957115
000310 3c 84 8f 3c 79 39 2f 3e 39 9e 9b bd ad 09 2c 3c
       0.017519109 0.17111768 -0.07598538 0.010500354
000320 c8 c0 25 3b e6 4c d8 3d ef 1a 75 be 47 1f 08 bb
       0.0025291909 0.10561542 -0.23936056 -0.0020770596
000330 4f 7d 39 bb 46 6e a7 3c 00 a8 b6 bc 0a 26 8d bc
       -0.002830345 0.020438325 -0.022296906 -0.017230053
000340 ad 51 f1 b8 5b a8 15 bb e1 d2 e3 b9 4b ac 90 3a
       -0.00011506989 -0.0022835943 -0.0004345393 0.0011037675
000350 16 19 a5 3b 8b 0b 4b be 21 d6 46 3d 52 7e 8c 3d
       0.005038391 -0.19828622 0.048544053 0.06860031
000360 08 c6 28 bb 96 ca 22 3a 01 5a fe ba ea 2e 71 bb
       -0.0025752801 0.0006209997 -0.0019405485 -0.0036801645
000370 b2 c7 f0 bc a3 a9 0b bd bb c4 15 3c f2 d1 3f bd
       -0.029392097 -0.034097325 0.0091411425 -0.04683108
000380 84 33 17 bc fe c0 d5 ba be 6a a1 bb dc e9 dd 3c
       -0.009228591 -0.0016308127 -0.0049260547 0.027089052
000390 6b 0c ca ba 5a 94 d8 3c ff d1 12 3d 5a 9d ff 3c
       -0.0015415078 0.026437927 0.0358448 0.03120296
0003a0 37 1f 34 3d 5e a5 63 3e d7 8a 66 3d 78 a3 1b 3d
       0.04397508 0.22231051 0.05628475 0.037997693
0003b0 ed 13 1d 3c f3 8b bd 3c 3c 66 ec 3c 12 27 fe 3b
       0.00958727 0.023138022 0.028857343 0.0077561224
0003c0 f9 41 86 bc 8b 23 8b 3d 28 60 b5 bb 9b a8 b6 3c
       -0.01638888 0.06793889 -0.0055351444 0.022297194
0003d0 7e 81 0b bd b6 4e 6e be 91 eb e7 3d 1d 6c 5e bb
       -0.03405904 -0.23272213 0.113242276 -0.0033938952
0003e0 9b 73 04 bd 43 86 e6 3d 21 bf e2 3c fe 39 cc 3c
       -0.032336812 0.11256077 0.027679028 0.024929997
0003f0 63 bf 02 3d d3 18 78 3c b8 6f 91 bc f1 31 63 3b
       0.0319208 0.015142637 -0.017753467 0.0034667219

bias f4 [24]
000000 19 1b 86 3e 02 72 32 be 79 69 65 bf de 6a 64 3d
       0.2619255 -0.17426303 -0.89614064 0.05576598
000010 71 3f 11 3e 0c 5c 2e 3e 55 f9 9e 3d 58 af 08 3f
       0.14184357 0.170273 0.077624 0.53392553
000020 70 ef bc bc f1 ef 44 3e 36 cc f2 3d dc 1c c0 bd
       -0.023063391 0.19232155 0.118553564 -0.093805045
000030 4b 26 35 be cd f1 46 bf e5 9f 22 3e 7b 56 86 3e
       -0.17690389 -0.7771271 0.15881307 0.26237854
000040 dc d7 c1 be db 29 b4 3d 60 73 d8 3e d5 cb 96 3e
       -0.3786 0.08797046 0.42275524 0.29452386
000050 13 dc 49 be fd 44 e1 be 0a ee 64 3e 05 3a 99 be
       -0.19712858 -0.43997946 0.2235643 -0.29927078

weight f4 [24, 12, 4, 4]
000000 8b 72 93 3d 5d 7b d8 3d db af f0 3d 6d df 1b 3b
       0.07199582 0.10570405 0.11752292 0.0023784295
000010 60 ba 2c bd 27 cd e9 3c 20 4b 2b be b1 9e b5 3d
       -0.04216993 0.028540207 -0.16727877 0.088681586
000020 10 77 02 bd 3f bf 3f bd 31 b8 17 3b fb d5 ae bd
       -0.031851828 -0.046813246 0.0023150558 -0.08536907
000030 5a 07 e2 3c 6f 32 af 3d 39 d0 3f bc 97 69 6d bc
       0.027591396 0.08554541 -0.011707359 -0.014490507
000040 58 8f 2b bd ec cd 7b bd 81 7a 22 3b 60 e7 af bd
       -0.04188475 -0.06147568 0.0024792256 -0.08589053
000050 fc df bc 3c 0e 70 a3 3e 80 f1 59 3d 6c 4e a6 3c
       0.023056023 0.31921428 0.053208828 0.020301066
000060 ed 04 fb 3b 9b 38 39 3e 5d 50 a6 bc ed 3f d7 bc
       0.0076604993 0.18088 -0.020301992 -0.0262756
000070 67 82 30 bd 8d 39 d6 3b 4f c3 c5 bc 9d c8 3a bd
       -0.04309311 0.0065376223 -0.024140982 -0.045601476
000080 47 d1 1b bd 71 64 9d 3c 9e b1 83 bd ff 05 86 3d
       -0.03804138 0.019212933 -0.06430362 0.065441124
000090 fd 01 7a 3e dd 9b 0d 3e a5 a0 fb b9 79 f4 ee bc
       0.24414821 0.13828988 -0.0004799414 -0.029169308
0000a0 bc 31 94 3d b3 4c 7b 3d c4 cb 6a 3d f7 b3 53 3c
       0.072360486 0.061352443 0.057323232 0.012921325
0000b0 5e f3 c8 3d 94 08 3c 3d 82 df 97 3b f3 10 e2 3c
       0.098120436 0.04590662 0.0046347985 0.027595973
0000c0 f3 64 78 3c 0c d4 45 3b 57 31 f8 3d 1b db 0b bd
       0.015160787 0.0030186204 0.12118786 -0.034144502
0000d0 f0 81 0d bd d6 80 b7 3d 35 21 a8 3b 2c 64 cf 3c
       -0.034547746 0.089601204 0.0051309117 0.02531632
0000e0 55 9d bc 3c 82 64 c7 3d 0d f2 8a 3d c4 17 1a 3d
       0.02302424 0.09735967 0.06784449 0.03762032
0000f0 ff 08 d4 3c e3 a3 28 3d ed 71 2e 3d a5 df 62 3c
       0.025883196 0.04117192 0.042589117 0.013847266
000100 3a 5b 3b be 53 ec 72 3e 7b 93 21 3b e3 a0 d0 bc
       -0.18296519 0.23722963 0.0024654556 -0.025467342
000110 f5 23 6f 3d a2 8e 09 3e 97 27 29 3d 9e 7e 85 bc
       0.0583839 0.13433316 0.04129752 -0.016295727
000120 0f b2 d4 3c 90 c0 84 3b 70 b4 63 bc f8 63 25 bc
       0.025963811 0.0040512756 -0.013898 -0.010094635
000130 3d a5 43 be a9 17 06 bd 02 2e de 3c e0 63 d7 bc
       -0.19106002 -0.032737408 0.027121548 -0.026292741
000140 ed 9c 12 bd d2 36 d3 bc b7 c0 ee 3c 94 a6 6f 3d
       -0.035794187 -0.025782976 0.029144628 0.05850847
000150 ea a3 95 bb cc 9e 78 bd 1e 4c 99 bb bc e5 a9 bc
       -0.004566659 -0.060698316 -0.0046782633 -0.020739429
000160 8f a4 3d bc a7 67 b9 bd fd 73 1c bc a6 df ee 3c
       -0.011574878 -0.09052973 -0.009549138 0.029159378
000170 a4 b9 08 bb d0 4a 34 3c ea 21 22 ba 43 a1 48 3d
       -0.0020862604 0.011004165 -0.0006184863 0.048981916
000180 31 fa 51 bd df 62 05 bd ca 66 51 be 0d d0 01 bc
       -0.05126399 -0.032564994 -0.20449367 -0.007923138
000190 a6 80 d3 3d 6e 1e 96 bd 29 d1 6c 3d d6 a7 0d 3d
       0.10327272 -0.07330023 0.05781666 0.03458389
0001a0 86 b5 07 3e e9 a5 f5 3c 85 2c ce bb 6d b6 cb 3c
       0.1325284 0.029986339 -0.0062919282 0.02486726
0001b0 61 81 49 3d 5a 07 1c 3d 00 0e 14 bd 0c 3f 7f 3c
       0.04919565 0.03809295 -0.036146164 0.015578996
0001c0 34 0e d1 bc 45 6f 04 be 67 12 36 3c dd e7 a1 3d
       -0.025519468 -0.12933071 0.011112786 0.079055525
0001d0 0a 2f 7d 3d 4a bd cf bd 22 4b a1 3e 38 b3 58 bd
       0.061812438 -0.10143526 0.31502634 -0.05290529
0001e0 f5 0b 94 3d 69 d0 45 bd 10 23 5f bd 41 fb ac 3d
       0.07228843 -0.04829446 -0.054476798 0.084463604
0001f0 a5 01 cf bc df 58 9d bd 54 b2 ee 3c e0 1d 90 bc
       -0.025269339 -0.076829664 0.029137768 -0.01759237
000200 d0 4f f5 bb d3 3b ca 3d 7d 23 25 bd 82 71 8e 3c
       -0.007486321 0.09874692 -0.040317047 0.01738811
000210 4a 3f b8 3b 00 83 99 be 32 98 d6 3d f6 65 31 bd
       0.005622779 -0.29982758 0.10478248 -0.04331013
000220 12 d2 62 3c 12 93 0f bd c2 93 5f 3e 7b 1f fa bb
       0.01384403 -0.035052367 0.21833709 -0.0076331473
000230 08 8b 77 3a 44 42 a1 3c 4f 35 58 3c 31 94 5d 3c
       0.00094430195 0.019684918 0.0131963035 0.013524101
000240 02 31 3e bd 23 91 d9 3c d8 6a 48 3d d3 db 04 3c
       -0.046433456 0.026558464 0.04893002 0.008109051
000250 49 5d d5 bd 80 23 74 be ee b0 b6 bd 3a b9 62 bd
       -0.10418183 -0.23841667 -0.089204654 -0.055352427
000260 51 02 7a bd 52 8b 69 bd 16 fe a4 bc e4 8e c6 3a
       -0.061037365 -0.05701763 -0.020140689 0.0015148786
000270 9e 86 36 bc 09 fc 3b 3d 59 29 32 3d af 11 cb 3c
       -0.011140494 0.045894656 0.043496463 0.024788706
000280 56 c6 73 bc 69 bf b2 bd 0c 4c 39 3d 7a 69 24 bd
       -0.01487883 -0.08727915 0.04523854 -0.040139653
000290 66 2d 58 bd 72 06 6d 3e 92 23 3e bd c8 3f 30 bd
       -0.05277767 0.2314699 -0.04642064 -0.043029577
0002a0 40 b2 ba 3c 14 c7 a9 3d 83 5a 2c 3e 77 79 fb 3c
       0.022790074 0.08289924 0.16831402 0.030697567
0002b0 b3 56 66 bc 9f a7 0a 3d b4 4a b6 bc d9 57 94 3c
       -0.014058757 0.033851262 -0.022252418 0.018108295
0002c0 f0 0d 5e bd b3 b3 01 3d 89 76 9d 3d 83 f5 3b 3c
       -0.05421251 0.031665515 0.076886244 0.011472109
0002d0 92 85 63 bd 93 5e 79 bd 67 13 19 3e 37 15 2b bd
       -0.055547304 -0.06088121 0.14948808 -0.04176828
0002e0 fe 65 56 bd 85 a1 c1 3d d3 5e 52 3d 20 a2 bc b9
       -0.05234336 0.094546355 0.051359963 -0.00035978947
0002f0 b4 92 24 bd 6a a8 0a bd dd 9f 15 3d 09 fa a2 bc
       -0.04017897 -0.03385202 0.03652941 -0.019894617
000300 38 d5 5c bc d8 9b ec bb 67 3d 95 3b 18 e6 30 bd
       -0.01347857 -0.0072207265 0.004554439 -0.043188184
000310 35 e3 51 3d cd f9 21 bd 79 c1 76 3d 2f 3b 1c 3d
       0.051242072 -0.03954487 0.060243104 0.03814238
000320 47 4f 53 3c e8 39 13 3e cd 17 d1 bc 54 ca 1f 3e
       0.012897319 0.14377558 -0.025524044 0.15604526
000330 8c fb 92 bb 7d 13 4e bd 1b ad 20 bc 57 70 1b bd
       -0.004485553 -0.050311554 -0.009806897 -0.037948932
000340 35 f4 94 3c 82 03 46 3d 60 a2 05 bc 3a 9c d5 3d
       0.018182853 0.04834319 -0.008156389 0.104301885
000350 df 9d bf 3c f5 37 a5 bd b6 2d 94 bc a6 51 d4 bc
       0.023390708 -0.080673136 -0.018088203 -0.02591784
000360 5f 4c 6c 3b 0c 5a 4b 3b 09 2f 7f be 6e 25 37 3e
       0.0036056263 0.0031029014 -0.24920286 0.17885372
000370 8e 7d 0b 3c d1 cb 24 3d 14 14 b5 bc 8a ff 62 3d
       0.008513821 0.040233437 -0.0221043 0.055419482
000380 bd 42 4b bc a2 69 74 bd 8a 3f 66 bd df 96 a1 bd
       -0.012406048 -0.05967105 -0.05621294 -0.078901045
000390 75 3a fe bc 2c 7a 77 3d 4e a5 fa bc ab ae 46 bd
       -0.031033734 0.060419247 -0.030596402 -0.04850642
0003a0 9f e9 bc 3c 82 a5 b0 3d 31 cf 80 3d fc c1 6e 3d
       0.023060618 0.08625318 0.062895186 0.058290467
0003b0 80 d3 a3 3d 35 95 09 bd 13 0a cb 3a 74 2a 2d bd
       0.07999325 -0.03358956 0.0015490673 -0.042276815
0003c0 d0 fb a7 3c 2f 78 4e bb d7 21 75 bb 1c 70 9f bd
       0.020505816 -0.003150474 -0.0037404203 -0.07785055
0003d0 09 cb 32 3d cb 5f 18 bd 9a ff d6 3c f4 83 8f bc
       0.04365066 -0.03720073 0.026244927 -0.017518975
0003e0 0f 6e d9 bd 77 c9 88 bd 38 35 2a 3d 5b 55 8a bd
       -0.10616695 -0.06679051 0.04155466 -0.067545615
0003f0 76 76 7c bc e3 ef 05 bd e7 d4 55 bd 35 e2 94 bc
       -0.015409103 -0.032699477 -0.052204993 -0.01817427

bias f4 [12]
000000 20 c4 f5 3d ac c3 0b 3d f9 ba 39 bb 03 44 70 3c
       0.120002985 0.034122154 -0.0028340204 0.014664653
000010 1d 9e 77 3e 71 3d 00 3e 73 97 13 3e 62 f1 27 bc
       0.24181409 0.12523438 0.14413242 -0.010250421
000020 f3 a5 e6 bd a0 7f a8 3c 91 fe a5 3e 29 cf c8 3d
       -0.11262121 0.020568669 0.3242078 0.09805138

weight f4 [12, 3, 4, 4]
000000 f6 38 3c 3c c0 b0 c2 bb 01 92 81 3d 6f 9f c6 3b
       0.01148819 -0.0059414804 0.06326676 0.0060614864
000010 89 d4 4f bd 2b 81 af bd 6f f6 88 3d 2c 98 97 bd
       -0.0507398 -0.08569559 0.066876285 -0.07402071
000020 5d 3c 8e 3d df 55 5a 3e ba 20 8c 3e 4d 5c 02 bd
       0.06945107 0.2132182 0.27368718 -0.031826306
000030 6f d0 27 bc b7 d7 b0 ba f9 d5 e9 bc 17 f0 e0 bd
       -0.010242566 -0.0013492022 -0.028544413 -0.109832935
000040 61 0c 61 bb 6f 6e 2d 3c 61 7e 8e 3d a1 b2 a7 bc
       -0.0034339654 0.010585411 0.069576986 -0.02047092
000050 8a 8d 0a bd 68 b5 f0 bc ed ae e6 3d 6a 11 88 bd
       -0.03382639 -0.029383376 0.11263833 -0.066439465
000060 af ae fc 3d 3f 1a a0 3e 5b 9b b2 3e 83 5d 17 3b
       0.12338006 0.31270024 0.34884152 0.0023096509
000070 b5 1c 20 3c 8c 6e 4d 3d 14 0c e5 3a ac ea e4 bd
       0.009772469 0.050154254 0.0017474913 -0.111775726
000080 49 6a 09 bc eb 69 8a bc 4e 1c e4 3c e7 14 3f bd
       -0.008387157 -0.016896209 0.027845528 -0.046650793
000090 50 90 8f bd 9d 0c ed bd e8 eb 14 3c c8 72 07 be
       -0.07009947 -0.115746714 0.009089448 -0.1322738
0000a0 d5 ce 0f 3e 75 c6 92 3e 3d e4 94 3e 8f 26 a0 bc
       0.14043744 0.28667036 0.29080382 -0.019549636
0000b0 74 69 3a 3d 55 2a 76 3d 50 3d a6 bc 9d 5b e6 bd
       0.045510724 0.060098965 -0.020292908 -0.112479426
0000c0 25 d9 2c 3d 2b 0b d8 3d 66 95 51 3e ae f0 cb 3d
       0.042199273 0.10549005 0.20467147 0.099580154
0000d0 5c 07 cc 3d fe 68 61 3e 58 b2 bd 3e 18 e4 1f 3e
       0.09962341 0.22012708 0.37050128 0.15614355
0000e0 3c 7d b1 3d 21 72 0b 3e c0 94 37 3e 0e 90 ff 3c
       0.08666465 0.13617755 0.17927837 0.03119662
0000f0 6b 91 8b 3d 8f 1a bf 3d 05 2e 9a 3d 99 27 9d 39
       0.06814846 0.093312375 0.07528309 0.00029974876
000100 ae cf 2b bc 3c f8 08 bd 41 b1 98 3d 96 1f 61 3d
       -0.010486526 -0.03343986 0.074556835 0.054961763
000110 bc ee 0f bd e1 01 6e bd e5 b4 c7 3d b6 7e e2 3c
       -0.035139784 -0.05810726 0.097513 0.027648311
000120 0f 8f 45 bd 50 99 14 be ce dc a5 bd bd 3f a6 bd
       -0.048232134 -0.14511609 -0.08098756 -0.08117626
000130 89 aa 65 3c 6b 61 3c bd c6 38 25 bd 79 44 d5 bc
       0.0140177095 -0.045991343 -0.040337346 -0.026033627
000140 35 d3 c1 bd 2f 60 8c bd bf 0e 86 3d 0f 1b 09 bc
       -0.09464113 -0.06854283 0.06545781 -0.008368268
000150 a7 e6 89 bd 8f b3 ff bb 6d 2b 3c 3e f9 ad 06 3d
       -0.067334466 -0.0078033875 0.1837594 0.032880757
000160 e8 88 8f bd 19 23 b1 bd 10 ed b9 3c 47 37 78 bd
       -0.07008535 -0.086492725 0.022696048 -0.06059959
000170 c2 bc 86 bd e3 e0 94 bd 1b 60 01 bd 3d 3f 95 bd
       -0.065789714 -0.07269456 -0.031585794 -0.07287452
000180 7d 3e 17 bd cc c6 d4 bd 25 3e 3e bd 7f a5 79 bc
       -0.036924828 -0.1038948 -0.046445984 -0.015237211
000190 f1 1c e1 bc 17 04 00 be b9 0d 8f 3d d4 3e b2 3d
       -0.02747962 -0.1250156 0.06985039 0.0870339
0001a0 79 9a 18 be b3 40 ac be 41 e5 c7 bd 92 60 13 3c
       -0.14902677 -0.33643112 -0.097605236 0.008995192
0001b0 76 59 e0 bd c0 dd 58 be 41 df e6 bd a4 e6 25 bd
       -0.10954563 -0.21178341 -0.11273051 -0.04050316
0001c0 c1 53 ef bb d3 69 ea bd 9c e6 b9 bd 38 8b ac bc
       -0.0073036854 -0.114459656 -0.090771884 -0.021062478
0001d0 4d 03 13 bd c1 55 4b be be 24 1b bd 03 3e 3b 3d
       -0.03589182 -0.19856931 -0.037876837 0.045713436
0001e0 f1 83 ff bd 36 d7 be be 70 87 2a be 4e 79 8c 3b
       -0.12476338 -0.37273568 -0.16653228 0.0042869216
0001f0 3a d5 3a bd 71 34 3b be e8 4a ed bd bd 88 13 bc
       -0.045613505 -0.18281724 -0.11586553 -0.009004769
000200 27 8f ca 3c 59 63 63 bd 71 cc 9d bd 4e 69 13 bd
       0.024726463 -0.055514667 -0.0770501 -0.0359891
000210 eb 17 fe 3c 5e a2 b2 bd d5 aa f1 3c d9 f5 82 3d
       0.031017264 -0.08722375 0.029500404 0.06394548
000220 03 fe a4 bc 2c 97 5b be 7f a8 53 bd e5 f8 82 3d
       -0.020140653 -0.21444386 -0.051674362 0.06395129
000230 8b ba 13 3d 1d e7 82 bd e8 49 2f bd 90 d1 d0 3c
       0.036066573 -0.063917376 -0.042795092 0.025490552
000240 7b c5 31 bd 4c 1a 8a bd b4 48 34 3d fd f3 f9 bc
       -0.043401223 -0.06743297 0.044014648 -0.03051185
000250 a4 d8 b6 bc cb f0 c9 bd 13 7f 11 3e 33 8d 22 3c
       -0.0223201 -0.09860381 0.14208631 0.00992136
000260 2c 02 20 3c 85 4b c2 bd a8 00 e9 3d de 44 8a 3c
       0.009766143 -0.094870605 0.11377078 0.016878542
000270 98 7b b5 3b 15 b6 02 bd 9b b7 17 3d 2f f2 3c bc
       0.005538415 -0.03191193 0.037040334 -0.01153235
000280 19 2b 15 3c e4 20 9c bd 43 42 7c ba 49 db 71 bc
       0.009104514 -0.07623461 -0.0009622911 -0.014761754
000290 5d 8b 4e bd d9 cc 74 be b2 11 0c bd 6c 1a 68 bd
       -0.050425876 -0.23906268 -0.034196563 -0.056665823
0002a0 ff 6a 5e bd e8 6c 8f be d9 57 9c bd e2 8e 5d bd
       -0.05430126 -0.28012776 -0.07633943 -0.05409134
0002b0 7f 2d be 3c 12 24 b1 bd 64 d8 ad bc a5 af 7a ba
       0.023215054 -0.08649458 -0.021221347 -0.0009562916
0002c0 2c fc 62 3d fb 6e c5 3c f0 ae 77 3d 77 dd ed bb
       0.05541627 0.024100771 0.060469568 -0.0072590667
0002d0 be ca 59 3d 8b ea 6e bd 56 2e ef 3d ec 78 d8 3b
       0.053171866 -0.058329146 0.1167876 0.006606212
0002e0 98 a2 d8 ba dc c5 19 be 94 b9 6e 3d 8b 8c c5 bb
       -0.0016527949 -0.15016884 0.05828245 -0.006028717
0002f0 95 b4 af 3c 3d 7c 0f bd b5 c8 d1 3c 6e 06 0c bc
       0.021448413 -0.035030592 0.0256084 -0.008546455
000300 79 84 56 3d 8c fa 0e 3e 2d c7 b5 3e 52 3b 92 3e
       0.05237243 0.13962764 0.35503522 0.28560883
000310 a3 1b 42 3d 84 20 2b 3e 65 58 f3 3e 39 72 f1 3e
       0.047389638 0.16711622 0.47528377 0.47157457
000320 e9 6d 3b bc 5c 75 74 3d a0 47 77 3e 71 fa 92 3e
       -0.011439779 0.059682235 0.24148417 0.28706697
000330 49 29 20 bb 3a 87 96 3c 0f 9b f8 3d c9 97 1a 3e
       -0.002443867 0.018375028 0.1213895 0.15096964
000340 ca e6 3c 3d 66 8a 33 3e 3a 16 c3 3e 60 4e 9b 3e
       0.046118535 0.17533264 0.38102895 0.30333233
000350 5b 29 7c 3d 2c 3e 68 3e 13 7e 09 3f 86 ab 00 3f
       0.061562877 0.22679967 0.53708 0.50261724
000360 b7 66 18 3d 25 12 0f 3e 1c 0e ad 3e 70 44 b5 3e
       0.03720733 0.13971765 0.33799827 0.35403776
000370 fc b7 9f 3c 87 de 90 3d 87 3f 26 3e 31 be 25 3e
       0.01949691 0.07073694 0.16235171 0.16185834
000380 d7 5f 04 3d e9 1e 02 3e eb 27 aa 3e 4f 48 8e 3e
       0.032317962 0.12707104 0.3323358 0.27789542
000390 95 b0 2b 3d 93 eb 2f 3e 34 82 ed 3e 39 86 ea 3e
       0.04191645 0.17179708 0.463884 0.4580553
0003a0 16 af 33 3d 8a fa fa 3d 8d 0d 99 3e 03 70 ad 3e
       0.043868147 0.12254818 0.2989315 0.3387452
0003b0 ea c8 14 3d ea bf 83 3d d8 1c 20 3e 76 ad 34 3e
       0.03632442 0.06433089 0.15636003 0.17644295
0003c0 03 01 16 bc ec d9 eb 3b 3e 96 d2 3c 48 1f 29 3d
       -0.009155515 0.007197609 0.025706407 0.041289598
0003d0 a4 e9 c6 3c ef 9c be 3d 36 4a 56 3d a7 8a 70 3d
       0.02428133 0.093072765 0.052316867 0.05872598
0003e0 8a 74 15 3d 4e 7d cd 3d 5c 3c 20 bd 9c 29 0d bd
       0.036488093 0.100336656 -0.039120063 -0.03446351
0003f0 42 5c c1 3b 14 1a 35 3d d2 1c 3f bd 12 ca 3b bd
       0.0059008906 0.044214323 -0.046658345 -0.045847006

bias f4 [3]
000000 23 a3 74 ba 47 48 de 3d 53 00 0c 3c
       -0.00093321706 0.108536296 0.008544999
