models/best.pth (torch_old, 370355 bytes, 36 tensors)

weight f4 [16, 3, 4, 4]
0.06149166 -0.08352945 0.032662105 -0.065881476 0.07621863 0.03439826 0.036973868 -0.01121254
-0.10959712 -0.082577325 0.099878624 -0.0013538516 -0.07357916 0.06465686 -0.16078208 0.024110828
-0.086512975 0.055412408 -0.11002706 0.065373056 -0.048490062 -0.11232377 -0.13792285 -0.12699373
0.07743041 0.052729975 0.06694447 -0.09796221 -0.052278034 0.020470314 0.08718573 -0.10554619
0.017514389 -0.16066587 -0.008617065 -0.0054346933 0.032008484 -0.07676538 0.09591657 0.073980205
-0.060126938 -0.001073876 -0.13142128 -0.08712936 -0.058698315 -0.02902293 0.09523224 -0.1438856
0.09936956 0.06519212 -0.0779109 0.032866262 0.022017986 -0.15533508 0.0896294 -0.09878173
0.04122147 -0.009870295 0.055361673 0.042572454 -0.16205238 -0.007374085 0.04595529 -0.15023161
-0.072358705 -0.09312614 -0.11703717 0.022828922 0.06145073 -0.09070268 -0.002360191 -0.055931654
-0.14685059 0.008221258 -0.047428887 -0.11025298 -0.08485488 0.097238734 -0.111601904 -0.05939141
-0.116862185 -0.15160137 -0.007977822 0.11051634 0.037627764 -0.16312802 -0.012127542 0.012041607
0.06902022 0.031154675 -0.031174853 -0.072387114 0.04156248 0.06164474 -0.15045407 -0.14590932
-0.018814 -0.06485055 -0.0053930427 0.13612884 -0.10452507 -0.09078381 0.13509776 0.055334672
0.11205397 0.067493506 -0.071722165 0.16097966 0.059891358 -0.0262277 -0.030430662 -0.135687
0.03409466 -0.033320177 -0.055948637 0.0651053 0.14380184 -0.06574936 0.17620839 0.057980455
0.0018425579 -0.109802134 0.001654738 0.14302607 -0.123386785 0.1360571 -0.062333807 0.079372786
0.07828585 -0.060996912 -0.029727926 0.05299516 0.13132122 0.009872742 0.15252246 0.08466092
-0.09627966 0.09788175 -0.061450034 -0.008444461 0.0733744 -0.077505425 -0.078012675 0.0058132363
0.053918928 0.089127555 0.06930732 0.08237849 0.14707774 0.19459346 0.14420104 0.051292382
-0.11120281 0.110757664 -0.045077898 0.03679186 0.06568498 0.10498059 -0.124412954 -0.046024136
0.014282601 -0.11487931 0.098005496 -0.040803958 0.035778426 0.13692383 -0.107703574 0.095708705
-0.04703159 -0.016527496 0.0051170737 -0.12861235 -0.038317557 0.14440453 -0.07722082 -0.11883563
-0.024945205 0.109476775 -0.07551785 -0.038656373 -0.015721012 -0.066520005 0.14563465 -0.11034525
0.004852067 -0.0111809205 0.07861277 0.022469973 0.118547775 -0.10181404 0.06920185 0.004384945
-0.16663964 -0.15013178 -0.13970375 -0.10195881 -0.014578358 -0.02457395 0.045111272 -0.07384055
-0.12151374 -0.0237961 0.041482948 -0.14642395 0.104985505 0.064473026 0.08673876 -0.11139802
0.06459715 0.006734282 -0.09389723 0.10105243 0.11476475 0.08791455 -0.0058298795 0.113123946
-0.115621425 0.026613 0.120071545 0.0024142559 0.003221515 0.0021624207 -0.102473035 0.116323985
0.011681672 0.09850504 0.08836183 0.0030407622 0.029515145 -0.09550299 0.014276516 -0.034582138
-0.103855185 0.037061773 0.07428106 0.07695331 0.04597776 0.12813662 -0.04368363 0.038524397
-0.11469601 -0.016417095 0.06737168 0.0683199 0.117718935 0.1257893 -0.08954569 0.114864565
-0.04551867 -0.112371504 0.13314159 -0.009638657 -0.1225776 -0.13655429 0.054412574 0.0519478
00000000: aede 7b3d 7d11 abbd b3c8 053d deec 86bd
00000010: 8318 9c3d 31e5 0c3d e971 173d cdb4 37bc
00000020: 7474 e0bd 4d1e a9bd 2a8d cc3d b973 b1ba
00000030: acb0 96bd d16a 843d 0fa4 24be 1284 c53c
00000040: b72d b1bd 1ff8 623d de55 e1bd 4fe2 853d
00000050: 849d 46bd 010a e6bd a63b 0dbe a50a 02be
00000060: d693 9e3d 63fb 573d 2f1a 893d 69a0 c8bd
00000070: 7e21 56bd 5cb1 a73c 6f8e b23d 9a28 d8bd
00000080: 567a 8f3c 9885 24be 972e 0dbc 8315 b2bb
00000090: 541b 033d 2b37 9dbd e86f c43d ef82 973d
000000a0: aa47 76bd 4dc1 8cba 4d93 06be e170 b2bd
000000b0: a56d 70bd 7fc1 edbc 1f09 c33d bf56 13be
000000c0: 4582 cb3d 7283 853d c08f 9fbd c69e 063d
000000d0: 105f b43c 2910 1fbe 9e8f b73d 134e cabd
000000e0: d8d7 283d 05b7 21bc ecc2 623d 7460 2e3d
000000f0: 0ff1 25be 4fa2 f1bb 9d3b 3c3d 51d6 19be
00000100: cd30 94bd ebb8 bebd 2fb1 efbd b803 bb3c
00000110: c3b3 7b3d 54c2 b9bd 6fad 1abb 9718 65bd
00000120: 0060 16be 75b2 063c cb44 42bd 50cc e1bd
00000130: 65c8 adbd 1a25 c73d 8a8f e4bd 6844 73bd
00000140: 7155 efbd 643d 1bbe 69b5 02bc 6456 e23d
00000150: 921f 1a3d 080b 27be 99b2 46bc 294a 453c
00000160: 795a 8d3d 1738 ff3c 6862 ffbc b23f 94bd
00000170: 6b3d 2a3d 327f 7c3d a210 1abe 4169 15be
00000180: d11f 9abc 5dd0 84bd 1fb8 b0bb 5c65 0b3e
00000190: 3d11 d6bd ddec b9bd 1157 0a3e 9ca6 623d
000001a0: 8d7c e53d 093a 8a3d 12e3 92bd dad7 243e
000001b0: a450 753d 79db d6bc b949 f9bc 88f1 0abe
000001c0: d8a6 0b3d bd7a 08bd 662a 65bd ed55 853d
000001d0: ca40 133e 9aa7 86bd f96f 343e ea7c 6d3d
000001e0: fc81 f13a f1df e0bd cbe3 d83a 6d75 123e
000001f0: 36b2 fcbd 8d52 0b3e bc51 7fbd 338e a23d
00000200: 5554 a03d e6d7 79bd fb87 f3bc 7411 593d
00000210: 1279 063e 48c1 213c d92e 1c3e b462 ad3d
00000220: 452e c5bd 3a76 c83d 08b3 7bbd a35a 0abc
00000230: 5145 963d 2abb 9ebd 1cc5 9fbd f67c be3b
00000240: 18da 5c3d 8288 b63d fff0 8d3d 0eb6 a83d
00000250: 8c9b 163e 8243 473e 70a9 133e f617 523d
00000260: 4dbe e3bd ead4 e23d 9aa3 38bd 10b3 163d
00000270: d985 863d 1000 d73d 38cc febd ce83 3cbd
00000280: 9201 6a3c d845 ebbd 1bb7 c83d 0d22 27bd
00000290: 668c 123d c335 0c3e b193 dcbd ed02 c43d
000002a0: 32a4 40bd ac64 87bc 20ad a73b f5b2 03be
000002b0: dff2 1cbd c8de 133e f325 9ebd 1860 f3bd
000002c0: e359 ccbc 5c35 e03d 1aa9 9abd 2556 1ebd
000002d0: 5ac9 80bc a43b 88bd 4021 153e b1fc e1bd
000002e0: 17fe 9e3b 2e30 37bc bbff a03d f312 b83c
000002f0: 2dc9 f23d e183 d0bd b3b9 8d3d 96af 8f3b
00000300: 95a3 2abe 25bc 19be 800e 0fbe c8cf d0bd
00000310: 11da 6ebc 4f4f c9bc 99c6 383d b739 97bd
00000320: 32dc f8bd 0af0 c2bc 06ea 293d 29f0 15be
00000330: a402 d73d 6f0a 843d 17a4 b13d a524 e4bd
00000340: 834b 843d 40ab dc3b 314d c0bd 94f4 ce3d
00000350: c809 eb3d 8b0c b43d 9308 bfbb 87ad e73d
00000360: edca ecbd 8203 da3c 12e8 f53d 7e38 1e3b
00000370: 0e20 533b 66b7 0d3b 62dd d1bd 453b ee3d
00000380: 7c64 3f3c 03bd c93d 0cf7 b43d 8647 473b
00000390: bfc9 f13c 1297 c3bd 0ce8 693c 00a6 0dbd
000003a0: 07b2 d4bd 16ce 173d ab20 983d b299 9d3d
000003b0: 2d53 3c3d 3f36 033e 9bed 32bd c2cb 1d3d
000003c0: bee5 eabd 257d 86bc 2afa 893d 4eeb 8b3d
000003d0: a016 f13d e9ce 003e bb63 b7bd 1d3e eb3d
000003e0: c971 3abd 0823 e6bd 4556 083e 75eb 1dbc
000003f0: f709 fbbd e3d4 0bbe b8df 5e3d 37c7 543d

bias f4 [16]
0.09657897 -0.095812455 0.13591374 0.03617337 0.09369574 -0.01829288 0.06708924 0.050443307
0.001759269 -0.035667386 0.078248724 0.012643229 0.13704115 0.09965987 0.06507449 -0.015652915
00000000: 32cb c53d 5239 c4bd f92c 0b3e 872a 143d
00000010: 8de3 bf3d f3da 95bc 1566 893d a49d 4e3d
00000020: 4697 e63a f717 12bd de40 a03d 8c25 4f3c
00000030: 8454 0c3e 791a cc3d c645 853d 8b3a 80bc

weight f4 [16]
0.9792671 0.98093724 0.9814258 1.0028404 0.9996817 0.98093057 0.9929772 0.9859268
1.0280017 0.980426 1.0089132 1.0009727 0.9800907 1.006361 1.0068933 0.98005354
00000000: 40b1 7a3f b41e 7b3f b93e 7b3f 135d 803f
00000010: 24eb 7f3f 441e 7b3f c133 7e3f b365 7c3f
00000020: 8f95 833f 33fd 7a3f 1124 813f e01f 803f
00000030: 39e7 7a3f 70d0 803f e1e1 803f cae4 7a3f

bias f4 [16]
-0.005188876 -0.0108656455 0.03202396 0.05038423 0.0024606974 -0.0038840133 0.0037587867 0.002136894
0.06241257 -0.012202402 0.042143144 0.0073847426 -0.0063606016 0.017221548 0.037350733 0.054361325
00000000: 7207 aabb d205 32bc 8e2b 033d b25f 4e3d
00000010: a743 213b ee8a 7ebb fa55 763b 220b 0c3b
00000020: 53a4 7f3d 95ec 47bc 4a9e 2c3d b6fb f13b
00000030: 986c d0bb 3414 8d3c 15fd 183d fba9 5e3d

running_mean f4 [16]
0.17661297 0.004889638 0.08025953 0.01730487 0.03610678 0.07347216 0.114638016 -0.005838637
-0.023612952 0.048519723 0.0663356 -0.074248254 0.20640898 0.0031761625 0.124468 0.019532084
00000000: 08da 343e 4239 a03b 1c5f a43d f1c2 8d3c
00000010: b4e4 133d 9278 963d 56c7 ea3d 0952 bfbb
00000020: f36f c1bc 9ebc 463d f6da 873d 780f 98bd
00000030: e05c 533e 2a27 503b 14e9 fe3d c001 a03c

running_var f4 [16]
0.17528778 0.3451469 0.13362524 0.13626115 0.04014344 0.17950207 0.18337892 0.27489805
0.15399423 0.24816014 0.19676776 0.10613204 0.17437913 0.0822514 0.21055117 0.18463494
00000000: a47e 333e 18b7 b03e 0ed5 083e 0b88 0b3e
00000010: 736d 243d 64cf 373e afc7 3b3e 70bf 8c3e
00000020: aab0 1d3e b11d 7e3e 7d7d 493e c15b d93d
00000030: 7190 323e 6c73 a83d ba9a 573e f110 3d3e

weight f4 [32, 16, 4, 4]
-0.0036920286 0.031107327 0.0060261684 -0.0006149179 -0.05148724 0.035317637 0.034596562 -0.04650099
-0.047269322 -0.03024462 0.008381137 0.027641896 -0.033407506 -0.034287304 -0.04032564 0.05704159
0.008758137 -0.04579645 -0.056186896 0.016972188 0.03470231 0.039761458 0.028632818 -0.017290184
0.059650507 -0.036227677 0.055852775 0.02735275 -0.062973216 0.032906618 0.047287893 0.014639801
-0.022975389 -0.06325441 -0.0070195575 0.006127899 -0.061972797 0.047804225 0.0316178 0.04719467
0.02575797 0.041304845 -0.031389706 0.04157775 0.016823288 0.04440878 0.025512375 0.010066227
-0.06487934 0.03448612 0.0060926545 -0.044815775 0.016935041 -0.032053623 -0.057354447 -0.041735895
-0.061524518 0.02559455 0.061201677 -0.043981027 -0.047942277 -0.033086937 0.015426331 -0.06754478
0.05759518 0.045996647 -0.008414689 -0.043158595 0.00041243437 -0.020686312 0.06538746 -0.0075192223
0.015178558 0.02035008 0.06540857 0.046651613 0.007630995 0.047919814 0.045020536 -0.040637065
-0.01907165 0.012197911 0.057539757 0.026646374 0.065311104 -0.05862382 0.005785105 0.027593052
-0.00086371764 -0.0011812135 0.036244802 -0.05418574 -0.047485705 0.013722856 -0.06131793 -0.058738682
-0.01991773 -0.025022486 -0.009352196 0.05134196 -0.051615085 0.054946203 0.015928784 -0.01785669
-0.032337565 -0.051319055 0.05433486 -0.028143546 0.0068734526 -0.0028333843 0.046099633 0.05735361
-0.0076833675 -0.0699925 0.0038878762 0.0043789605 -0.044716824 -0.058309957 -0.0005331192 -0.01623689
-0.04004133 -0.034325864 0.041961115 0.012002412 0.0044782483 -0.06638599 -0.0033768674 -0.06649352
-0.044869766 0.0156193115 -0.013733437 -0.06931591 0.020804888 -0.05643429 -0.044339985 -0.056293726
-0.007294849 -0.00995332 -0.060832597 -0.07428328 0.03490527 0.01691498 -0.06551898 -0.016056918
0.04573167 -0.017068787 0.04355721 0.016635152 -0.049007714 -0.004270896 -0.024256118 -0.059246283
0.037265025 -0.041665148 -0.050265446 -0.055317067 0.008780319 -0.061197285 0.019728774 -0.054122042
-0.0013364771 -0.0272331 0.023534672 0.0018614796 -0.047397066 -0.04104639 -0.06946138 0.033438068
0.0041733235 -0.04432379 -0.019286823 0.04607211 -0.004409218 -0.05547799 0.04569768 0.016289597
0.060790375 0.0007447012 -0.0015427981 0.000354915 -0.051389337 0.056019846 0.021406692 0.0070295855
0.021985251 -0.04234556 -0.043389056 0.013443565 0.0010998313 -0.033300456 0.0052357563 0.008562117
-0.0014609426 0.05043334 0.0002596392 -0.05590826 -0.049448524 -0.033681583 -0.009910998 0.0036323343
-0.008591376 0.047765564 -0.06484894 0.0017632523 0.04430741 0.03916449 -0.041931346 -0.032525238
-0.007891469 -0.034915276 0.017999087 -0.020458594 0.034685045 -0.02486159 0.07267061 -0.0016998008
0.050274357 -0.04362129 0.001846316 -0.02034531 0.03666836 0.059043303 -0.04106472 -0.023782669
0.03273806 -0.023135027 0.051382672 0.04117592 0.03547535 -0.020686118 -0.03519441 0.010820068
0.014121974 0.050429255 -0.01333187 0.012410429 0.013700779 -0.004935872 -0.006092888 -0.017034797
-0.02855256 0.054853257 -0.038143665 0.033047087 -0.0098127285 0.058188282 -0.0042728097 -0.010797485
-0.00482651 0.024903826 0.020159286 -0.03760398 0.02939014 0.02806979 -0.04217077 0.04785118
00000000: f6f5 71bb cbd4 fe3c 2a77 c53b 7132 21ba
00000010: 49e4 52bd 3aa9 103d 20b5 0d3d d277 3ebd
00000020: 7a9d 41bd 91c3 f7bc 0951 093c 4271 e23c
00000030: 4fd6 08bd d870 0cbd 802c 25bd 71a4 693d
00000040: 4a7e 0f3c 0f95 3bbd 3b24 66bd 4209 8b3c
00000050: 0224 0e3d e9dc 223d 5f8f ea3c 25a4 8dbc
00000060: 1754 743d 7963 14bd e1c5 643d e012 e03c
00000070: 1af8 80bd 17c9 063d f3b0 413d c7db 6f3c
00000080: e236 bcbc 878b 81bd 5104 e6bb 8bcc c83b
00000090: 30d7 7dbd 5dce 433d ab81 013d 334f 413d
000000a0: 6102 d33c 452f 293d 7e92 00bd 6e4d 2a3d
000000b0: fed0 893c fbe5 353d 54ff d03c d1ec 243c
000000c0: 76df 84bd 5141 0d3d e4a4 c73b bf90 37bd
000000d0: 5bbb 8a3c a94a 03bd 7fec 6abd 42f3 2abd
000000e0: 2201 7cbd a9ab d13c 9cae 7a3d 7325 34bd
000000f0: 1f5f 44bd 2b86 07bd b9be 7c3c eb54 8abd
00000100: ece8 6b3d fb66 3c3d c4dd 09bc 11c7 30bd
00000110: 013c d839 5776 a9bc dce9 853d cf63 f6bb
00000120: 7daf 783c 36b5 a63c eef4 853d c315 3f3d
00000130: 6d0d fa3b 9147 443d 7467 383d 0d73 26bd
00000140: 263c 9cbc bfd9 473c cfae 6b3d 7f49 da3c
00000150: d4c1 853d 881f 70bd fa90 bd3b d30a e23c
00000160: 1c6b 62ba f3d2 9aba 6e75 143d def1 5dbd
00000170: 5f80 42bd d4d5 603c 8328 7bbd f997 70bd
00000180: 822a a3bc f5fb ccbc f439 19bc f24b 523d
00000190: 576a 53bd 450f 613d 157d 823c 3148 92bc
000001a0: 6574 04bd ee33 52bd 3b8e 5e3d 4b8d e6bc
000001b0: b33a e13b 4db0 39bb f8d2 3c3d 9eeb 6a3d
000001c0: c2c4 fbbb 3a58 8fbd bdcb 7e3b 627d 8f3b
000001d0: fd28 37bd 6cd6 6ebd 06c1 0bba 3a03 85bc
000001e0: 6102 24bd 4799 0cbd 6bdf 2b3d c4a5 443c
000001f0: 45be 923b 61f5 87bd 6f4e 5dbb c12d 88bd
00000200: 5cc9 37bd 24e8 7f3c 3602 61bc 80f5 8dbd
00000210: 036f aa3c a427 67bd d89d 35bd 4094 66bd
00000220: a109 efbb 4013 23bc 9a2b 79bd d521 98bd
00000230: d4f8 0e3d 4991 8a3c d12e 86bd cc89 83bc
00000240: 2251 3b3d d7d3 8bbc 0c69 323d 7146 883c
00000250: 50bc 48bd dff2 8bbb c4b4 c6bc 3bac 72bd
00000260: 36a3 183d 13a9 2abd 24e3 4dbd 2694 62bd
00000270: 54db 0f3c 01aa 7abd 3d9e a13c 13af 5dbd
00000280: bb2c afba f317 dfbc c9cb c03c e4fc f33a
00000290: 6d23 42bd 4220 28bd c541 8ebd 5bf6 083d
000002a0: 60c0 883b dd8c 35bd 66ff 9dbc 1cb6 3c3d
000002b0: 347b 90bb e43c 63bd 7e2d 3b3d c371 853c
000002c0: 54ff 783d 0d38 433a b737 caba e313 ba39
000002d0: a07d 52bd 1175 653d 165d af3c 7058 e63b
000002e0: 6a1a b43c 8a72 2dbd b9b8 31bd 6642 5c3c
000002f0: 3728 903a 0f66 08bd b590 ab3b 1f48 0c3c
00000300: 197d bfba 3193 4e3d 2f20 8839 0f00 65bd
00000310: 898a 4abd b3f5 09bd bd61 22bc 750c 6e3b
00000320: d8c2 0cbc d3a5 433d 85cf 84bd ee1c e73a
00000330: b07b 353d f26a 203d 34c0 2bbd 2f39 05bd
00000340: 384b 01bc 5203 0fbd d272 933c c898 a7bc
00000350: e811 0e3d 88aa cbbc 54d4 943d dacb deba
00000360: 7cec 4d3d 3dac 32bd 1600 f23a 35ab a6bc
00000370: 9031 163d 64d7 713d 7b33 28bd dfd3 c2bc
00000380: 5818 063d ab85 bdbc a376 523d 15a8 283d
00000390: 9a4e 113d ef75 a9bc 0328 10bd a846 313c
000003a0: da5f 673c e88e 4e3d ea6d 5abc 1d55 4b3c
000003b0: 3b79 603c 18bd a1bb d9a6 c7bb 8f8c 8bbc
000003c0: 0fe7 e9bc cfad 603d 883c 1cbd 625c 073d
000003d0: 91c5 20bc d656 6e3d ed02 8cbb efe7 30bc
000003e0: b327 9ebb 1c03 cc3c 1625 a53c a206 1abd
000003f0: 97c3 f03c 9ef2 e53c 42bb 2cbd 99ff 433d

bias f4 [32]
0.04894967 0.04645512 -0.030898312 -0.058006838 -0.03869891 0.050246615 0.018195083 -0.03385755
0.05891839 0.028152384 0.02066242 -0.029694714 0.023401557 -0.041400395 -0.05235599 -0.0047220816
0.030387187 -0.049848087 0.037470207 0.0033849094 0.030815769 0.026006695 -0.029485032 -0.007179355
0.014559599 0.044132028 -0.039720975 0.049617033 0.052166224 0.038597416 -0.015475406 -0.061730295
00000000: 737f 483d b947 3e3d 751e fdbc 9498 6dbd
00000010: c082 1ebd 65cf 4d3d db0d 953c 37ae 0abd
00000020: 6954 713d d49f e63c 3c44 a93c 5442 f3bc
00000030: 9fb4 bf3c 7693 29bd 3c73 56bd b1bb 9abb
00000040: 8dee f83c 822d 4cbd 5c7a 193d 5bd5 5d3b
00000050: 5a71 fc3c fe0b d53c 988a f1bc cb40 ebbb
00000060: 628b 6e3c c9c3 343d 76b2 22bd 3b3b 4b3d
00000070: 40ac 553d 5318 1e3d 8f8c 7dbc e8d8 7cbd

weight f4 [32]
0.9840059 1.0070099 0.9972112 0.9899475 1.0116524 0.99176 0.99927074 0.98537797
0.99645597 0.96813536 1.0094694 0.99108875 0.96732897 0.99023336 1.0037025 1.0025343
0.98361516 1.0055699 0.99792737 1.0059358 1.0293384 1.0067418 0.98863965 0.9824077
1.002441 1.0107765 1.0078255 1.0235225 0.9701014 1.0011444 0.99786747 0.9999058
00000000: d0e7 7b3f b3e5 803f 3c49 7f3f 336d 7d3f
00000010: d37d 813f fce3 7d3f 35d0 7f3f bb41 7c3f
00000020: bd17 7f3f b8d7 773f 4b36 813f feb7 7d3f
00000030: dfa2 773f ef7f 7d3f 5379 803f 0b53 803f
00000040: 34ce 7b3f 84b6 803f 2b78 7f3f 81c2 803f
00000050: 5cc1 833f eadc 803f 7d17 7d3f 127f 7b3f
00000060: fd4f 803f 2061 813f 6d00 813f c902 833f
00000070: 9158 783f 8025 803f 3e74 7f3f d4f9 7f3f

bias f4 [32]
-0.031620067 0.009400824 0.03586533 0.044219285 0.07102564 0.038921285 -0.006059758 0.014411552
-0.04495338 0.0067808516 0.068024755 0.042947374 -0.007100074 0.020089146 -0.042420518 -0.0012450214
-0.020173429 -0.009069187 -0.05647331 -0.01873423 0.06722846 -0.029623948 0.044288054 -0.041215077
0.03194799 0.0038206582 -0.042235717 0.02540439 0.028463144 -0.010871293 0.034954682 0.047375865
00000000: 0b84 01bd ea05 1a3c 86e7 123d 481f 353d
00000010: e475 913d ed6b 1f3d ef90 c6bb 6e1e 6c3c
00000020: 0921 38bd e831 de3b 9050 8b3d 96e9 2f3d
00000030: bda7 e8bb fe91 a43c 23c1 2dbd fc2f a3ba
00000040: bf42 a5bc ed96 14bc 8f50 67bd 8778 99bc
00000050: 13af 893d ecad f2bc 6467 353d 24d1 28bd
00000060: e5db 023d 0264 7a3b 5cff 2cbd de1c d03c
00000070: 8a2b e93c 821d 32bc a42c 0f3d 320d 423d

running_mean f4 [32]
-0.24263383 -0.17110506 -0.2627305 -0.26116654 -0.0017018077 0.06699862 0.05698263 -0.008771821
-0.23047157 -0.11766971 -0.090702765 -0.12027847 -0.4151781 -0.1344177 -0.3854613 -0.2250095
-0.31611314 -0.21551278 -0.27638534 -0.35946953 0.04566173 -0.26414913 -0.08368511 -0.18797831
-0.11165288 -0.06338745 -0.34354854 -0.26877707 -0.14332104 -0.068839714 -0.13386267 -0.05791088
00000000: 0175 78be 2a36 2fbe 9d84 86be 9fb7 85be
00000010: 310f dfba 9336 893d 9e66 693d afb7 0fbc
00000020: bd00 6cbe d1fc f0bd 5fc2 b9bd 8f54 f6bd
00000030: 3992 d4be cba4 09be 2f5b c5be e468 66be
00000040: 95d9 a1be 62af 5cbe 6182 8dbe 640c b8be
00000050: cb07 3b3d 8e3e 87be 1963 abbd 637d 40be
00000060: 44aa e4bd 48d1 81bd 98e5 afbe 269d 89be
00000070: c0c2 12be d6fb 8cbd 4c13 09be f533 6dbd

running_var f4 [32]
0.23787059 0.50292474 0.26022568 0.3253959 0.22022995 0.5413056 0.52968997 0.5184366
0.24885057 0.4156352 0.15589513 0.21266747 0.41139004 0.6450025 0.3354251 0.17801407
0.38674897 1.0210998 0.35751575 0.835086 0.30527917 0.23957264 0.31984004 0.14345437
0.17833957 0.588378 0.33171836 0.392244 0.2262662 0.94852525 0.11990004 0.2376516
00000000: 5994 733e adbf 003f 4d3c 853e 4b9a a63e
00000010: f683 613e 0193 0a3f c399 073f 43b8 043f
00000020: afd2 7e3e 23ce d43e f9a2 1f3e 80c5 593e
00000030: b7a1 d23e e21e 253f d7bc ab3e 5249 363e
00000040: f603 c63e 66b3 823f 4e0c b73e 32c8 553f
00000050: 8d4d 9c3e 8852 753e 13c2 a33e b4e5 123e
00000060: a69e 363e f19f 163f fdd6 a93e 35d4 c83e
00000070: 54b2 673e 8dd2 723f 278e f53d f15a 733e

weight f4 [64, 32, 4, 4]
-0.028719204 0.033020858 0.023805453 -0.03930823 0.025939593 -0.02202821 -0.0043353904 -0.02413406
0.008554134 -0.041201945 0.0045769955 -0.024963733 0.00995912 0.025014514 -0.03526167 -0.015524106
-0.011646416 -0.024133766 0.028272713 -0.0013591376 -0.02434258 -0.08557115 -0.07075351 0.002102006
0.030619964 -0.006681863 0.042641785 0.016709333 0.031679854 -0.008407115 0.026438778 0.03617545
-0.0048793694 0.01218014 -0.036556307 -0.035514593 0.0048106974 0.0125841405 0.0094178775 -0.0040995944
0.011973994 0.0064995266 -0.0649706 0.022301918 -0.020585671 0.047125697 -0.015517189 -0.030149255
0.01164093 0.009706688 -0.008372811 -0.013252748 0.024118882 0.030029561 0.031148043 0.003966579
-0.017843815 -0.0057740114 -0.016881274 0.04119185 -0.0026461084 0.03928313 0.035892345 0.01915711
0.027917337 -0.034900557 -0.036242668 -0.043176115 -0.039170843 0.03143444 0.013195175 -0.008814739
0.011076489 0.005424981 -0.023010038 0.011662498 -0.030757368 -0.048273075 -0.021650529 -0.03656609
0.004391003 -0.029418211 -0.034584492 0.023163565 0.013534601 0.0005079531 0.032179505 -0.030641247
0.037833262 -0.01160477 0.042543024 -0.01556046 -0.026945869 -0.0068247016 -0.02533647 -0.034250185
0.046654973 0.010908987 -0.045491684 0.033853944 -0.017058592 -0.007964273 -0.053514373 0.0010361884
-0.030183872 -0.028098078 0.016840683 -0.014721758 -0.015145826 0.0122994725 -0.033073697 -0.0059913276
-0.016373795 0.045911297 0.010235114 -0.012469968 -0.004766606 -0.010799209 0.036738228 0.018331839
0.017597398 -0.026737418 0.015295293 -0.03322403 -0.006952882 0.030036867 -0.0128814215 -0.030798882
-0.0055281487 -0.008469525 0.0039772824 -0.0112590315 0.0086259525 0.0020840622 0.027733926 0.018539974
-0.024987372 -0.016614847 0.014675618 0.008867077 0.02648874 -0.026862253 0.0026167305 -0.000127915
-0.03161767 -0.02720956 0.01299164 0.039617695 0.024689974 -0.0142364325 -0.01336945 -0.021780033
-0.006945445 -0.0010349789 0.052621037 0.019936856 0.035239212 -0.02325994 -0.020428956 0.028513653
0.015814321 -0.0055130892 0.016470117 -0.0003205511 0.02578604 0.005002228 0.041056026 0.008321022
0.04937463 0.04000149 -0.015552354 -0.014710646 -0.0045045083 -0.029648509 -0.0051768064 -0.017315106
0.03134266 0.027527673 0.020283338 -0.00036452588 -0.02687336 0.03374689 0.030247733 0.005753081
0.04079901 -0.04455356 0.043485455 0.013136467 -0.01825321 -0.0042570587 0.029269036 -0.027924364
-0.011386035 0.00528677 -0.0204278 -0.0033429796 -0.020283282 0.004129369 0.005044434 -0.009305205
0.014365808 0.022209108 0.0044375947 -0.017083714 -0.020274548 0.027673716 0.010621124 0.039571892
0.015516078 -0.012655614 -0.02618796 -0.027470464 0.019535212 -0.010205542 -0.010538014 -0.0040274095
0.03144218 -0.024672192 -0.031848542 0.03752338 0.036092114 -0.038009845 0.052480206 0.0029802513
-0.018357541 -0.007412099 -0.038567282 0.026687242 -0.022713082 -0.0009347941 0.0066249543 -0.00906954
-0.017508881 0.007972608 0.02300615 -0.00698908 0.020047422 -0.0037850686 -0.024168609 0.00066479587
0.008530691 0.0021383741 -0.05858402 -0.03640481 -0.01137148 0.039521247 0.014686002 -0.04505855
0.012168883 -0.044723697 -0.02744485 -0.013316016 0.02318348 0.027029553 -0.0006344087 -0.028817415
00000000: 8944 ebbc e140 073d a703 c33c ab01 21bd
00000010: 457f d43c 8174 b4bc e40f 8ebb cbb4 c5bc
00000020: a326 0c3c 5fc3 28bd 9ffa 953b be80 ccbc
00000030: 942b 233c 3deb cc3c 8a6e 10bd d258 7ebc
00000040: 9cd0 3ebc 2db4 c5bc 2d9c e73c 1725 b2ba
00000050: 176a c7bc ed3f afbd 37e7 90bd cfc1 093b
00000060: b8d6 fa3c 88f3 dabb 27a9 2e3d 03e2 883c
00000070: bcc2 013d ffbd 09bc 2396 d83c b52c 143d
00000080: 1ee3 9fbb 368f 473c 11bc 15bd c077 11bd
00000090: 0ea3 9d3b b62d 4e3c 714d 1a3c e455 86bb
000000a0: 922e 443c fbf9 d43b 4e0f 85bd 83b2 b63c
000000b0: 48a3 a8bc e006 413d cf3b 7ebc 92fb f6bc
000000c0: 99b9 3e3c cd08 1f3c 1d2e 09bc 0e22 59bc
000000d0: f694 c53c 8e00 f63c 2e2a ff3c 14fa 813b
000000e0: 312d 92bc eb33 bdbb 994a 8abc c9b8 283d
000000f0: 556a 2dbb 59e7 203d da03 133d 5fef 9c3c
00000100: e6b2 e43c e3f3 0ebd 3173 14bd 70d9 30bd
00000110: 9b71 20bd 66c1 003d 9330 583c b26b 10bc
00000120: 2a7a 353c 0ac4 b13b 8c7f bcbc 1014 3f3c
00000130: e0f6 fbbc fdb9 45bd 735c b1bc 53c6 15bd
00000140: 67e2 8f3b 76fe f0bc 78a8 0dbd 84c1 bd3c
00000150: 3bc0 5d3c 2828 053a a8ce 033d 5a03 fbbc
00000160: 0df7 1a3d ef21 3ebc 9841 2e3d 4df1 7ebc
00000170: 95bd dcbc bfa1 dfbb 6e8e cfbc ec49 0cbd
00000180: 4919 3f3d 9cbb 323c 7d55 3abd 6faa 0a3d
00000190: 76be 8bbc 957c 02bc e331 5bbd b7d0 873a
000001a0: 2b44 f7bc f12d e6bc 79f5 893c 8733 71bc
000001b0: 3326 78bc ba83 493c 4978 07bd e652 c4bb
000001c0: 5622 86bc 7c0d 3c3d 2eb1 273c d64e 4cbc
000001d0: 3031 9cbb 2aef 30bc d37a 163d a72c 963c
000001e0: 6b28 903c 6e08 dbbc 1c99 7a3c ec15 08bd
000001f0: 00d5 e3bb e00f f63c 990c 53bc f04d fcbc
00000200: 7925 b5bb c3c3 0abc dd53 823b cd77 38bc
00000210: de53 0d3c c394 083b 4232 e33c 25e1 973c
00000220: 51b2 ccbc dc1b 88bc 0172 703c 3747 113c
00000230: eafe d83c 3a0e dcbc 747d 2b3b ec20 06b9
00000240: 8881 01bd 95e6 debc e3da 543c 2a46 223d
00000250: a142 ca3c ed3f 69bc 8a0b 5bbc 0a6c b2bc
00000260: 9e96 e3bb 21a8 87ba 2889 573d 9e52 a33c
00000270: fe56 103d a18b bebc a05a a7bc 7795 e93c
00000280: 098d 813c 25a7 b4bb 57ec 863c a40f a8b9
00000290: 3f3d d33c bbe9 a33b 5d2a 283d e554 083c
000002a0: 0d3d 4a3d 9ad8 233d 4dcf 7ebc ec04 71bc
000002b0: 8e9a 93bb 6ee1 f2bc 33a2 a9bb 69d8 8dbc
000002c0: 2961 003d b781 e13c 3e29 a63c d61d bfb9
000002d0: 8525 dcbc 2e3a 0a3d 18ca f73c 5784 bc3b
000002e0: dd1c 273d cb7d 36bd ce1d 323d 563a 573c
000002f0: c187 95bc cc7e 8bbb 9ec5 ef3c a3c1 e4bc
00000300: 7e8c 3abc a43c ad3b 3458 a7bc e415 5bbb
00000310: 2029 a6bc a84f 873b c84b a53b dc74 18bc
00000320: 915e 6b3c e0ef b53c 3e69 913b 25f3 8bbc
00000330: cf16 a6bc fdb3 e23c 3904 2e3c 2316 223d
00000340: 2637 7e3c 7e59 4fbc 2288 d6bc bd09 e1bc
00000350: 4f08 a03c 2535 27bc a2a7 2cbc 5cf8 83bb
00000360: 84c9 003d 561d cabc 9e73 02bd 1eb2 193d
00000370: 53d5 133d 36b0 1bbd 7cf5 563d 5250 433b
00000380: 8e62 96bc 31e1 f2bb baf8 1dbd 349f da3c
00000390: c910 babc f80c 75ba 2516 d93b 6898 14bc
000003a0: c96e 8fbc 8b9f 023c 6577 bc3c a704 e5bb
000003b0: 7e3a a43c ea0e 78bb 3ffd c5bc b245 2e3a
000003c0: 50c4 0b3c f723 0c3b ccf5 6fbd 361d 15bd
000003d0: 724f 3abc 08e1 213d 8f9d 703c 508f 38bd
000003e0: ff5f 473c 3230 37bd 06d4 e0bc 6b2b 5abc
000003f0: 48eb bd3c 156d dd3c 724e 26ba 8012 ecbc

bias f4 [64]
0.0409284 -0.04279403 0.001380779 0.0056755533 -0.028197438 -0.00979055 -0.0014348942 -0.03272981
-0.04120856 -0.03092389 -0.026603125 -0.011382283 -0.004440022 0.023875238 0.029506223 0.007806135
0.040053423 -0.040936824 0.0334811 -0.00019915374 -0.0021665706 -0.02084521 -0.03221882 -0.040034626
-0.026321495 0.011089261 0.036473624 0.00072719326 -0.036810026 0.009139135 -0.01801442 0.009374099
-0.010743253 -0.024240451 -0.031719014 0.02161851 -0.01292715 0.023485154 -0.043342672 0.020020036
-0.009310463 -0.031865437 -0.019504266 -0.02493179 -0.029939372 0.014239876 -0.0043001845 0.0061364565
-0.03520135 -0.041623436 0.015256388 0.024211865 -0.034540568 -0.009392251 -0.0054081734 -6.728337e-05
0.038734812 0.00018958002 -0.012446604 0.014595993 0.040801995 -0.014997073 -0.037027057 -0.043641917
00000000: 8aa4 273d cb48 2fbd 41fb b43a fef9 b93b
00000010: 50fe e6bc 8b68 20bc 0f13 bcba b10f 06bd
00000020: 4fca 28bd 1954 fdbc ccee d9bc c17c 3abc
00000030: 9b7d 91bb 0196 c33c 09b7 f13c 9bca ff3b
00000040: 0f0f 243d 5fad 27bd 7a23 093d edd3 50b9
00000050: 06fd 0dbb 93c3 aabc e2f7 03bd 59fb 23bd
00000060: 2da0 d7bc bbaf 353c 5e65 153d 1da1 3e3a
00000070: 1cc6 16bd 4fbc 153c fa92 93bc d295 193c
00000080: 7804 30bc e993 c6bc cceb 01bd 4d19 b13c
00000090: 66cc 53bc f063 c03c 1688 31bd 0f01 a43c
000000a0: ea8a 18bc 5585 02bd 69c7 9fbc c13d ccbc
000000b0: 6a43 f5bc 5e4e 693c 90e8 8cbb 5414 c93b
000000c0: 4a2f 10bd 567d 2abd eef5 793c f657 c63c
000000d0: 697a 0dbd f5e1 19bc 0c37 b1bb 7c1a 8db8
000000e0: 65a8 1e3d 00ca 4639 d7ec 4bbc 0824 6f3c
000000f0: fe1f 273d 49b6 75bc afa9 17bd dec1 32bd

weight f4 [64]
1.003799 0.97075653 0.99839103 0.9992821 0.98974556 0.99501294 0.9868015 0.9911979
0.99547064 1.0046812 0.9925099 1.0037795 1.0063945 1.004879 1.022852 0.9926062
1.0036824 0.9858371 1.0065535 0.9897964 1.0023272 1.0030988 0.99455273 0.97957706
0.98895705 1.0095567 1.004763 1.0042742 1.0006261 0.995081 0.9858577 1.0007315
0.9957033 1.0267546 1.0024046 0.9946299 0.9906814 1.010805 0.9714505 0.9849969
1.0060318 0.9906062 0.9978853 0.99628353 1.0016309 0.9927342 1.0005921 0.97918475
1.0114434 1.0166353 0.9847357 0.9840969 1.0057776 0.99669915 0.99217767 1.0024006
0.995288 0.9815414 0.9991943 0.99755865 1.0053712 0.97894317 0.9948083 0.9692443
00000000: 7c7c 803f 8083 783f 8e96 7f3f f4d0 7f3f
00000010: f75f 7d3f 2bb9 7e3f 069f 7c3f 25bf 7d3f
00000020: 2ad7 7e3f 6599 803f 2115 7e3f d97b 803f
00000030: 89d1 803f e09f 803f d0ec 823f 711b 7e3f
00000040: aa78 803f d25f 7c3f bfd6 803f 4c63 7d3f
00000050: 424c 803f 8b65 803f 029b 7e3f 90c5 7a3f
00000060: 4a2c 7d3f 2739 813f 139c 803f 0f8c 803f
00000070: 8414 803f a1bd 7e3f 2c61 7c3f f817 803f
00000080: 69e6 7e3f b26c 833f cb4e 803f 11a0 7e3f
00000090: 4c9d 7d3f 0f62 813f fbb0 783f c228 7c3f
000000a0: a6c5 803f 5e98 7d3f 6975 7f3f 700c 7f3f
000000b0: 7135 803f d423 7e3f 6713 803f daab 7a3f
000000c0: fa76 813f 1b21 823f a417 7c3f c6ed 7b3f
000000d0: 52bd 803f ad27 7f3f 5bff 7d3f aa4e 803f
000000e0: 32cb 7e3f 4c46 7b3f 33cb 7f3f 0160 7f3f
000000f0: 01b0 803f 059c 7a3f c2ab 7e3f 6520 783f

bias f4 [64]
0.05133267 0.0065934598 0.049516417 0.008736943 -0.0142940115 0.045633435 0.042544637 0.002405281
0.030605398 -0.005582047 0.03244765 -0.049492635 0.055297118 0.066161506 0.02653949 -0.018619714
0.0011543863 0.030646602 0.035214044 -0.020117056 -0.040033948 -0.042317413 0.01221517 0.03306754
-0.040022776 0.033238154 -0.016104732 -0.04462634 -0.05377309 -0.0032303466 -0.009445862 -0.043804374
0.00398287 0.030939091 -0.031014469 0.024155105 0.040698353 0.005983263 -0.018028578 0.011717054
0.03995475 0.041611515 0.043358035 0.030494379 0.027689304 -0.0042431727 0.05521339 0.03126099
0.006553143 0.054738212 0.0051441584 0.050916642 -0.0045926054 0.016030462 -0.04602043 -0.031054778
-0.033904728 0.017494522 0.0047496166 -0.023881989 -0.015134975 0.021054577 0.02322922 -0.01214126
00000000: 3542 523d f30d d83b bad1 4a3d 6525 0f3c
00000010: 6e31 6abc 20ea 3a3d 4943 2e3d eba1 1d3b
00000020: 2cb8 fa3c 9be9 b6bb d4e7 043d cab8 4abd
00000030: 3b7f 623d af7f 873d 5869 d93c 5f88 98bc
00000040: c74e 973a 950e fb3c 9a3c 103d 86cc a4bc
00000050: a3fa 23bd 0655 2dbd 2322 483c d471 073d
00000060: ecee 23bd bb24 083d 12ee 83bc 1cca 36bd
00000070: 2c41 5cbd 39b4 53bb d1c2 1abc 376c 33bd
00000080: bc82 823b fa73 fd3c 0e12 febc ede0 c53c
00000090: 51b3 263d 3f0f c43b abb0 93bc e3f8 3f3c
000000a0: 98a7 233d d670 2a3d 3298 313d 59cf f93c
000000b0: aed4 e23c 500a 8bbb 7027 623d 860b 003d
000000c0: bfbb d63b 2d35 603d 5490 a83b f88d 503d
000000d0: 917d 96bb 5152 833c eb7f 3cbd 9766 febc
000000e0: afdf 0abd ac50 8f3c aca2 9b3b 29a4 c3bc
000000f0: b0f8 77bc a67a ac3c 354b be3c 23ec 46bc

running_mean f4 [64]
-0.029256029 -0.06002718 0.021345716 0.23197953 0.43820208 -0.0102238525 0.04263207 0.20983794
-0.12901308 0.041309536 -0.119181335 0.4113645 0.07056181 0.042805698 0.07728219 0.11498877
0.22142121 -0.03837729 0.05110519 0.261483 0.489649 0.16681227 0.06446662 -0.111300066
0.094137944 -0.07488524 0.4353682 0.20424113 0.46247303 0.25264952 0.3921537 0.24546933
0.5269319 0.052672103 0.26956537 0.015401261 -0.013954929 0.13362822 0.114417106 0.16163002
-0.0887231 -0.13652553 -0.04822838 -0.09798641 -0.11295918 0.5370498 0.032115035 0.22036868
-0.017360616 0.012339717 -0.051483754 -0.09426455 0.11797706 -0.093051404 0.26712492 0.36613756
0.24449378 0.16784851 0.0993522 0.34474543 0.26366004 -0.12433583 0.13350895 0.10791892
00000000: 57aa efbc 0fdf 75bd 36dd ae3c 0b8c 6d3e
00000010: 065c e03e f281 27bc f79e 2e3d c2df 563e
00000020: 011c 04be 3034 293d 5815 f4bd 5e9e d23e
00000030: b682 903d 0755 2f3d 2046 9e3d 3b7f eb3d
00000040: 3ebc 623e 8131 1dbd ad53 513d 1ae1 853e
00000050: 46b3 fa3e d6d0 2a3e 1307 843d 4af1 e3bd
00000060: 65cb c03d 6f5d 99bd 95e8 de3e 9624 513e
00000070: 44c9 ec3e 475b 813e 5fc8 c83e 505c 7b3e
00000080: 02e5 063f b4be 573d 7904 8a3e 9255 7c3c
00000090: 37a3 64bc d6d5 083e 8453 ea3d 5782 253e
000000a0: 75b4 b5bd 59cd 0bbe 1f8b 45bd 19ad c8bd
000000b0: 2457 e7bd 187c 093f 0e8b 033d 54a8 613e
000000c0: da37 8ebc 862c 4a3c a1e0 52bd c60d c1bd
000000d0: f59d f13d bc91 bebd 99c4 883e 6276 bb3e
000000e0: 945c 7a3e 7be0 2b3e 2b79 cb3d 7982 b03e
000000f0: 73fe 863e c9a3 febd 92b6 083e 9804 dd3d

running_var f4 [64]
0.29460433 0.33449495 0.36129466 0.24294968 0.43070954 0.27118886 0.38123214 0.16562906
0.20176165 0.17560564 0.42779154 0.3726214 0.38810715 0.31195313 0.44527665 0.23161405
0.3112433 0.16113122 0.30922925 0.39954776 0.44119647 0.28270143 0.22887722 0.44784093
0.38006115 0.34787112 0.39842895 0.40891206 0.31252486 0.20488223 0.3134153 0.30311382
0.30260623 0.3975788 0.39831993 0.32433006 0.32593614 0.31040582 0.17726457 0.22883934
0.18930735 0.21833546 0.2354895 0.26741943 0.27685326 0.45090258 0.2795138 0.36583722
0.40423647 0.46755493 0.36379293 0.1583725 0.24309078 0.23509258 0.35751837 0.4229904
0.47367406 0.22596411 0.29644367 0.3059072 0.2838931 0.25763327 0.2910841 0.47029993
00000000: 61d6 963e ec42 ab3e 9dfb b83e cdc7 783e
00000010: f685 dc3e 44d9 8a3e dc30 c33e aa9a 293e
00000020: 9b9a 4e3e f7d1 333e 7e07 db3e 3bc8 be3e
00000030: fbb5 c63e 52b8 9f3e 4dfb e33e 3c2c 6d3e
00000040: 485b 9f3e 95ff 243e 4c53 9e3e 8691 cc3e
00000050: 81e4 e13e 3ebe 903e ca5e 6a3e 684b e53e
00000060: 6097 c23e 2a1c b23e e1fe cb3e ec5c d13e
00000070: 4203 a03e a6cc 513e f877 a03e bc31 9b3e
00000080: 34ef 9a3e 738f cb3e 97f0 cb3e 970e a63e
00000090: 1ae1 a63e 83ed 9e3e d884 353e dc54 6a3e
000000a0: c9d9 413e 5593 5f3e 2924 713e 33eb 883e
000000b0: b6bf 8d3e b4dc e63e 6f1c 8f3e 044f bb3e
000000c0: 15f8 ce3e 5c63 ef3e 1143 ba3e 672c 223e
000000d0: caec 783e 1cbc 703e a60c b73e 3392 d83e
000000e0: 6885 f23e 2363 673e 77c7 973e de9f 9c3e
000000f0: 705a 913e 82e8 833e fa08 953e 27cb f03e

weight f4 [64, 32, 4, 4]
0.04252839 0.024856906 -0.042173974 0.022274224 0.0034472134 -0.03408731 -0.05659966 0.01092271
-0.02609203 0.030826263 0.003943168 0.017166289 -0.006005251 0.00606871 -0.01884727 -0.0071853558
0.006036898 -0.0035025838 0.013991578 0.019101039 0.044129446 -0.057947855 0.0064083 -0.043444786
0.029461553 -0.034230035 0.00903388 -0.03608282 0.0050331545 0.004288763 0.0005026456 -0.00028958754
-0.0026354464 0.02269464 0.010005554 -0.008524989 0.0032881687 0.04430997 0.0603744 0.016404979
0.008017522 -0.019085994 -0.0075119203 0.027331587 0.018313196 0.012569644 0.013108009 -0.012538395
-0.0048884167 0.022661526 0.01798645 -0.024440765 -0.018708203 0.0061974814 0.00056880136 0.0052538575
0.011825146 0.023137342 -0.04377919 -0.045330968 -0.014084983 0.010537716 -0.04732854 -0.029365152
-0.005611738 -0.02778516 0.012363814 0.018282894 0.013863781 0.035822146 0.05523668 -0.014850392
-0.012980595 -0.05114255 -0.001903854 0.024926787 -0.017100457 -0.021553203 0.01639502 -0.016720675
-0.015233962 0.011383049 -0.013521385 0.013820697 -0.026350223 0.054792065 -0.047078308 -0.019920748
0.004289465 -0.022962177 0.0028731818 -0.0023999724 -0.058602788 0.0023761657 0.04794089 -0.0007467657
-0.011811454 0.010523194 -0.028600264 -0.03155375 -0.011107976 -0.014552748 -0.016417062 0.029335413
0.02565049 0.031701222 0.010964153 -0.008910115 0.0116906455 0.008498706 -0.017052094 -0.0076274322
0.041889656 -0.044090416 0.012195496 -0.0031619747 0.0031323018 0.0026143645 -0.023695571 -0.0053956923
-0.0064185257 -0.035005797 -0.061141014 -0.007939638 -0.006600757 0.0098860925 0.024154328 0.00897012
0.026373267 0.0015459416 -0.027708413 0.010425134 0.023915635 0.001094712 0.01652425 -0.027252259
0.025958546 -0.026140217 -0.05459262 -0.00015406516 -0.019694302 -0.033626426 -0.014614978 -0.014509038
-0.04152611 -0.042182647 0.012870834 -0.052834336 -0.0119899865 -0.048752643 0.06227398 -0.0399149
-0.014709686 -0.030364074 0.02033318 -0.04566061 0.00708882 0.026524682 0.021138856 -0.025948877
0.0037000375 -0.016602159 -0.0022581422 0.007475408 -0.027079226 -0.009943405 0.013917782 -0.008118337
0.030369846 0.038800664 0.023512425 -0.014649421 -0.013177418 -0.008114366 0.0010500544 0.007209933
-0.02615467 -0.02011026 -0.05808425 0.023414219 -0.02800545 0.06742222 -0.042798884 -0.002196709
-0.048924487 0.010125055 -0.04513853 -0.00875908 -0.022665907 0.038542636 0.024489762 0.015792504
-0.018922346 -0.049185492 -0.050432555 -0.001753751 -0.0227776 0.013535221 -0.0058562737 -0.0061139087
0.0062549342 0.0097544985 0.0071046115 -0.0013595808 -0.0031031405 -0.0334293 0.014104004 -0.021387402
0.024294062 -0.042451244 0.025954278 0.018554427 0.018026993 0.061803617 0.08342971 -0.0052676606
-0.03960086 -0.021464523 0.05158672 -0.056150366 0.02276162 -0.008740908 -0.006670829 0.0011492503
-0.0031075915 -0.01478688 -0.002167582 0.00899994 -0.0398869 0.048319135 -0.046280302 -0.031835306
-0.024513815 0.015033708 0.019803284 -0.0029727574 0.020318301 0.011194623 -0.013524272 -0.0401628
-0.025470475 0.012505269 -0.025811365 -0.019987514 0.009159403 0.027990948 0.034974206 0.008228729
-0.03444225 -0.0013363608 -0.0037352825 -0.012432682 0.021440344 0.035074856 0.040748566 -0.0121015785
00000000: 4032 2e3d b6a0 cb3c 9ebe 2cbd 6f78 b63c
00000010: a5ea 613b 239f 0bbd 0cd5 67bd 2bf5 323c
00000020: f4be d5bc 5c87 fc3c b135 813b 51a0 8c3c
00000030: b2c7 c4bb 07dc c63b 9765 9abc 2273 ebbb
00000040: 2cd1 c53b 9b8b 65bb ee3c 653c c879 9c3c
00000050: 14c1 343d bb5a 6dbd b7fc d13b 29f3 31bd
00000060: 5b59 f13c cb34 0cbd d702 143c 94cb 13bd
00000070: 29ed a43b c088 8c3b fac3 033a c8d3 97b9
00000080: 74b7 2cbb 1cea b93c 56ee 233c 65ac 0bbc
00000090: 517e 573b 5f7e 353d 264b 773d bc63 863c
000000a0: ed5b 033c 3b5a 9cbc 8e26 f6bb 7ee6 df3c
000000b0: 8e05 963c e8f0 4d3c f9c2 563c d76d 4dbc
000000c0: 032f a0bb aaa4 b93c 5258 933c 0038 c8bc
000000d0: f241 99bc 3e14 cb3b 9d1b 153a 8d28 ac3b
000000e0: 42be 413c 868a bd3c cf51 33bd f7ac 39bd
000000f0: b3c4 66bc 62a6 2c3c 92db 41bd 308f f0bc
00000100: ace2 b7bb b49d e3bc 9891 4a3c 02c6 953c
00000110: e924 633c 3eba 123d db3f 623d 0f4f 73bc
00000120: 90ac 54bc da7a 51bd bd8a f9ba 4333 cc3c
00000130: 4216 8cbc 5890 b0bc d94e 863c ccf9 88bc
00000140: de97 79bc f87f 3a3c cd88 5dbc 3470 623c
00000150: 6cdc d7bc a56d 603d 2fd5 40bd d630 a3bc
00000160: a48e 8c3b 2d1b bcbc fe4b 3c3b db48 1dbb
00000170: 7a09 70bd 72b9 1b3b ab5d 443d 99c2 43ba
00000180: d484 41bc 7a69 2c3c 1a4b eabc 813e 01bd
00000190: 3afe 35bc a66e 6ebc 137d 86bc d250 f03c
000001a0: fa20 d23c 24d9 013d fea2 333c bbfb 11bc
000001b0: 1f8a 3f3c 283e 0b3c d5b0 8bbc 8aef f9bb
000001c0: 7d94 2b3d 2798 34bd 9ecf 473c 2239 4fbb
000001d0: 4e47 4d3b c255 2b3b 371d c2bc 59ce b0bb
000001e0: 7f52 d2bb 3d62 0fbd 006f 7abd 4115 02bc
000001f0: 2a4b d8bb 47f9 213c 4cdf c53c 69f7 123c
00000200: c00c d83c 31a1 ca3a c1fc e2bc 2ece 2a3c
00000210: b9ea c33c 707c 8f3a dd5d 873c 2140 dfbc
00000220: 04a7 d43c 0224 d6bc 839c 5fbd 8d8c 21b9
00000230: f255 a1bc ddbb 09bd a973 6fbc 51b7 6dbc
00000240: 4817 2abd b6c7 2cbd 31e0 523c d168 58bd
00000250: a671 44bc dab0 47bd 0013 7f3d ce7d 23bd
00000260: e500 71bc 14be f8bc c591 a63c 9f06 3bbd
00000270: 5549 e83b 4a4a d93c 652b ad3c bd92 d4bc
00000280: 547c 723b 4001 88bc 57fd 13bb 44f4 f43b
00000290: 41d5 ddbc aae9 22bc 6907 643c c602 05bc
000002a0: 2fca f83c 72ed 1e3d 219d c03c 2004 70bc
000002b0: 19e6 57bc 1ef2 04bc fba1 893a 4d41 ec3b
000002c0: 5242 d6bc 46be a4bc c0e9 6dbd 2dcf bf3c
000002d0: af6b e5bc a914 8a3d e24d 2fbd a9f6 0fbb
000002e0: 0b65 48bd 8fe3 253c 2ee3 38bd 3f82 0fbc
000002f0: daad b9bc e2de 1d3d c19e c83c 485f 813c
00000300: 0903 9bbc ba76 49bd 5e92 4ebd 1ede e5ba
00000310: 1798 babc d5c2 5d3c fce5 bfbb 2f57 c8bb
00000320: 31f6 cc3b 55d1 1f3c cdcd e83b f633 b2ba
00000330: 0f5e 4bbb 29ed 08bd 7b14 673c a234 afbc
00000340: 5704 c73c 5be1 2dbd 119e d43c 74ff 973c
00000350: 58ad 933c ca25 7d3d 32dd aa3d 579c acbb
00000360: 8334 22bd 5ed6 afbc 994c 533d edfd 65bd
00000370: 9476 ba3c 0636 0fbc f896 dabb 71a2 963a
00000380: bca8 4bbb ac44 72bc fe0d 0ebb 7c74 133c
00000390: 7260 23bd 49ea 453d 6a90 3dbd bd65 02bd
000003a0: 32d1 c8bc f14f 763c 7f3a a23c 98d2 42bb
000003b0: 9172 a63c a769 373c e894 5dbc c081 24bd
000003c0: 75a7 d0bc e6e2 4c3c 5b72 d3bc dbbc a3bc
000003d0: 5211 163c 464d e53c 1d41 0f3d cad1 063c
000003e0: 5113 0dbd d428 afba a4cb 74bb 73b2 4bbc
000003f0: a9a3 af3c a7aa 0f3d f8e7 263d b345 46bc

bias f4 [32]
0.034392025 0.00017983047 0.006002438 -0.035958037 0.02141496 0.043641202 -0.00586604 0.023265945
-0.014730438 -0.033762917 0.0067762085 0.03510647 -0.00066887145 -0.04412465 -0.020513492 0.041646145
-0.0091331275 -0.030611552 0.033472866 0.027936753 -0.033098713 0.0039398572 -0.036909916 0.021134645
0.006190685 0.041400675 0.038017645 -0.031962894 -0.026225844 0.00075609423 -0.005194277 -0.035999443
00000000: a7de 0c3d e090 3c39 19b0 c43b bc48 13bd
00000010: 6d6e af3c 1ec1 323d e937 c0bb 3998 be3c
00000020: ef57 71bc fc4a 0abd f50a de3b cdcb 0f3d
00000030: 3457 2fba 0dbc 34bd e90b a8bc 2695 2a3d
00000040: 1da3 15bc 14c5 fabc d81a 093d 9edb e43c
00000050: 8492 07bd eb19 813b da2e 17bd 9022 ad3c
00000060: 3bdb ca3b c193 293d 64b8 1b3d 86eb 02bd
00000070: 95d7 d6bc a034 463a c134 aabb 2774 13bd

weight f4 [32]
0.99865603 0.9904638 0.98660743 0.99267775 1.0234627 0.9962368 0.9775203 0.9974153
1.0080858 1.0012618 0.99172187 0.9854852 0.9917016 0.9960846 1.0068402 0.99600196
0.98451674 0.99876195 1.0021257 1.0008564 0.99873376 0.99927545 0.9971225 0.9882767
1.0099263 0.98824084 0.9856842 0.9870051 0.9929359 0.98581654 1.0113072 0.983568
00000000: eca7 7f3f 098f 7d3f 4e92 7c3f 2120 7e3f
00000010: d300 833f 6009 7f3f c53e 7a3f 9c56 7f3f
00000020: f508 813f 5929 803f 7ce1 7d3f c248 7c3f
00000030: 28e0 7d3f 66ff 7e3f 24e0 803f fcf9 7e3f
00000040: 4a09 7c3f ddae 7f3f a845 803f 101c 803f
00000050: 04ad 7f3f 84d0 7f3f 6c43 7f3f b4ff 7c3f
00000060: 4445 813f 5afd 7c3f cd55 7c3f 5eac 7c3f
00000070: 0c31 7e3f 795e 7c3f 8472 813f 1dcb 7b3f

bias f4 [32]
0.03012598 0.021916086 0.016030505 0.014732725 0.06499786 0.0307327 -0.023041962 0.028718535
-0.017719403 -0.00074514555 -0.0030943442 0.012309578 -0.024051337 0.01145882 0.026397083 0.013403561
0.012538762 0.009331683 0.03965901 -0.033901885 -0.03785805 0.028255906 -0.021259923 -0.009797414
0.013780192 0.0083124405 -0.02822365 -0.0002484224 -0.0030356382 -0.010284954 -0.0020210764 0.05168554
00000000: c2ca f63c 5d89 b33c 6852 833c 8761 713c
00000010: 991d 853d 25c3 fb3c 7fc2 bcbc 2243 eb3c
00000020: 4828 91bc df55 43ba 7bca 4abb 1dae 493c
00000030: 4f07 c5bc c6bd 3b3c b23e d83c 9c9a 5b3c
00000040: 616f 4d3c eae3 183c 7c71 223d b4dc 0abd
00000050: 0b11 1bbd ee78 e73c 4a29 aebc 5585 20bc
00000060: 50c6 613c e730 083c 4935 e7bc b13e 82b9
00000070: 8ff1 46bb 3982 28bc 0974 04bb 37b4 533d

running_mean f4 [32]
0.06331059 0.1503506 -0.003456824 -0.07151159 -0.018106874 -0.012099551 0.10994109 0.019272227
0.112624444 -0.010785041 -0.03277133 0.13803308 0.08542599 -0.0561393 0.06688304 0.04515823
-0.032688115 0.019336037 0.09182374 0.25051504 0.036013685 -0.051951006 -0.06545689 -0.05721135
0.007840699 -0.06483364 0.07639555 0.06811429 -0.13240534 -0.08663964 0.15958524 -0.011429293
00000000: fca8 813d 82f5 193e e28b 62bb ab74 92bd
00000010: de54 94bc 323d 46bc cb28 e13d cae0 9d3c
00000020: a5a7 e63d beb3 30bc 3b3b 06bd 8b58 0d3e
00000030: d2f3 ae3d 53f2 65bd faf9 883d d6f7 383d
00000040: f9e3 05bd 9c66 9e3c 160e bc3d 8243 803e
00000050: 1683 133d 94ca 54bd 430e 86bd 7356 6abd
00000060: 4676 003c 80c7 84bd 4575 9c3d 817f 8b3d
00000070: 4495 07be 2070 b1bd 506a 233e ee41 3bbc

running_var f4 [32]
0.17359395 0.18206936 0.1911794 0.68821496 0.116767876 0.2113739 0.47281945 0.39173922
0.41505504 0.35712966 0.35672632 0.4157697 0.39499038 0.28356394 0.2937806 0.39287803
0.15617315 0.3830906 0.3107987 0.53825545 0.41323885 0.1454007 0.3485588 0.59590566
0.2927296 0.45388708 0.34247768 0.5295047 0.45364955 0.6155998 0.33617228 0.19730099
00000000: 9dc2 313e 6470 3a3e 88c4 433e db2e 303f
00000010: ff23 ef3d 6672 583e 6415 f23e 0b92 c83e
00000020: 1882 d43e b3d9 b63e d5a4 b63e c4df d43e
00000030: 2e3c ca3e 4b2f 913e 696a 963e 4f27 c93e
00000040: dbeb 1f3e 7324 c43e 0221 9f3e 1ccb 093f
00000050: 0b94 d33e ece3 143e 4d76 b23e 468d 183f
00000060: a7e0 953e e363 e83e 3c59 af3e 9f8d 073f
00000070: c144 e83e f397 1d3f c61e ac3e 4509 4a3e

weight f4 [32, 16, 4, 4]
-0.044278186 0.035671815 0.0047446154 -0.019710846 0.058882196 0.025145736 -0.031945944 0.027663285
-0.049258325 -0.0023101678 0.005337904 -0.042480327 -0.037351266 -0.00090182683 0.07545213 0.025937874
0.0020975021 -0.007624879 0.030560933 -0.041845348 -0.046538416 0.010385349 -0.05167166 -0.013452653
0.052841205 -0.033302117 -0.048489504 -0.0435808 -0.013056754 0.033731755 -0.05443768 -0.045826074
-0.017438063 -0.023455579 0.014072136 -0.027631631 -0.04736992 0.00018031673 0.012479 -0.0071395943
-0.01058171 -0.050472192 -0.055568434 0.01191789 0.06390718 0.018566536 0.0051264334 -0.017090388
-0.010402826 -0.022863828 0.010331573 -0.048765738 0.009357402 0.0114408005 -0.0532669 -0.0014136224
-0.036629207 -0.029116888 -0.03261011 0.033296768 -0.041011248 -0.0519114 0.08452411 -0.012391717
-0.0037686042 -0.026918275 -0.008230096 0.0064854063 -0.0029765998 0.019436792 0.026984213 -0.03415088
0.012602411 0.029837532 0.08027775 -0.014096883 0.029635161 0.045269158 0.027825445 0.0057484717
-0.007943287 -0.030273404 0.041459527 -0.041310843 -0.049505323 -0.021821465 0.012409016 -0.032461032
-0.025969978 -0.01384492 0.037482977 -0.024020737 0.0065978975 0.044905234 0.039125234 0.081556104
0.016661197 0.03456407 -0.022818705 -0.027148604 0.0134484675 -0.013909004 -0.016331354 -0.020377265
-0.010074808 -0.016714565 0.016603103 -0.008310513 0.033800412 0.01824645 0.030769337 0.028971188
0.005876878 -0.051986843 -0.009926018 -0.027891085 -0.054172043 -0.039415736 -0.08862666 0.021006737
-0.031006038 -0.04207897 -0.023014871 -0.02328579 -0.03658389 -0.03644179 0.06537816 -0.009384652
-0.042011306 -0.0072663454 -0.05143693 0.008299143 0.032676857 -0.09458066 -0.036732603 -0.059280917
-0.02441302 -0.029912023 -0.031751394 0.0053924993 -0.022043549 -0.00095760287 -0.01109613 -0.03235533
0.046338145 -0.018897131 0.00406647 -0.019503653 0.012658053 -0.0042461604 0.0029601573 0.03168722
0.029204277 0.017456174 0.025719412 0.037979316 -0.035483286 0.014471206 -0.019619126 0.07499546
-0.0010311551 -0.050548732 -0.0020091115 0.018401003 -0.06544582 -0.047992412 0.029947206 -0.06775677
-0.019609658 0.024203392 0.025182342 -0.03806229 0.02473511 -0.020083373 -0.038560014 0.022795428
0.004223167 -0.027555507 -0.0071962993 -0.035887368 -0.045304086 -0.012349933 -0.07815241 -0.048541598
0.0088238465 -0.008473829 -0.033518285 -0.025630385 -0.026145646 -0.008396634 -0.005314937 -0.061862513
-0.0058691544 0.060498204 0.024781665 -0.03859439 -0.07351867 -0.08007568 -0.02818037 -0.0020991382
-0.029762529 -0.002994595 0.043854717 0.039394487 -0.013764625 0.041545674 0.026971217 -0.036566216
-0.022997541 -0.0024499996 -0.027590983 -0.032871656 0.045648847 0.04060715 0.053724267 -0.054962225
-0.03006982 0.010632905 0.046809036 -0.027380748 -0.02878436 0.00082028884 -0.0034573446 -0.0055468203
0.035689455 0.028834771 0.053142235 -0.051392373 -0.013177651 0.047088336 0.042700842 -0.017623665
0.0070254873 0.016931802 0.01687631 0.0154053345 -0.04592735 0.011095881 0.0059367185 0.050248124
0.026718767 -0.039654717 -0.023587022 0.020481294 -0.036831297 -0.08561134 -0.02510297 -0.03021207
0.017844064 -0.0023716267 -0.062162317 0.022968773 -0.023024669 0.0075249155 -0.027653094 0.003827646
00000000: 0b5d 35bd 9c1c 123d b878 9b3b a478 a1bc
00000010: 752e 713d 6efe cd3c c0d9 02bd 1d9e e23c
00000020: 19c3 49bd 2f66 17bb 96e9 ae3b daff 2dbd
00000030: a4fd 18bd 9368 6cba a586 9a3d aa7b d43c
00000040: 3f76 093b 1fda f9bb ec5a fa3c 0766 2bbd
00000050: 119f 3ebd 5027 2a3c aaa5 53bd 8468 5cbc
00000060: 0570 583d cd67 08bd ee9c 46bd c881 32bd
00000070: ffeb 55bc 4f2a 0a3d 0bfa 5ebd 1fb4 3bbd
00000080: 45da 8ebc ea25 c0bc d18e 663c bb5b e2bc
00000090: f606 42bd 6713 3d39 b874 4c3c 42f3 e9bb
000000a0: e95e 2dbc eebb 4ebd ba9b 63bd 4143 433c
000000b0: c5e1 823d d918 983c a4fb a73b 2401 8cbc
000000c0: 9d70 2abc ec4c bbbc c245 293c 95be 47bd
000000d0: ca4f 193c 3272 3b3c 652e 5abd 4c49 b9ba
000000e0: 8208 16bd 8a86 eebc 2e92 05bd 3162 083d
000000f0: 69fb 27bd 0ca1 54bd fa1a ad3d a106 4bbc
00000100: b0fa 76bb b783 dcbc 86d7 06bc 8883 d43b
00000110: 0f13 43bb e839 9f3c ff0d dd3c cbe1 0bbd
00000120: 587a 4e3c d76d f43c a968 a43d 9df6 66bc
00000130: 70c5 f23c 276c 393d 30f2 e33c ad5d bc3b
00000140: 8f24 02bc eeff f7bc 77d1 293d 8f35 29bd
00000150: 18c6 4abd eec2 b2bc 2f4f 4b3c dcf5 04bd
00000160: febe d4bc ced5 62bc c087 193d 23c7 c4bc
00000170: 2d33 d83b 8dee 373d c841 203d e306 a73d
00000180: 107d 883c 0e93 0d3d 4bee babc c066 debc
00000190: f656 5c3c 97e2 63bc 55c9 85bc 39ee a6bc
000001a0: cf10 25bc fcec 88bc 3b03 883c d128 08bc
000001b0: 4d72 0a3d 9479 953c fa0f fc3c fc54 ed3c
000001c0: d392 c03b 28f0 54bd bda0 22bc d87b e4bc
000001d0: 81e3 5dbd 6572 21bd e581 b5bd 5216 ac3c
000001e0: 6000 febc ff5a 2cbd af89 bcbc d7c1 bebc
000001f0: fdd8 15bd fd43 15bd fce4 853d 15c2 19bc
00000200: 0c14 2cbd 861a eebb 88af 52bd 21f9 073c
00000210: 2bd8 053d 81b3 c1bd ed74 16bd 8cd0 72bd
00000220: d0fd c7bc 0f0a f5bc c00d 02bd 90b3 b03b
00000230: ac94 b4bc a407 7bba 8bcc 35bc 0687 04bd
00000240: 11cd 3d3d 28ce 9abc 0640 853b 20c6 9fbc
00000250: b963 4f3c 6023 8bbb 33ff 413b 75ca 013d
00000260: cf3d ef3c 4000 8f3c 84b1 d23c 3390 1b3d
00000270: ec56 11bd a318 6d3c 4ab8 a0bc 3897 993d
00000280: d327 87ba 300c 4fbd 4cab 03bb b3bd 963c
00000290: 7508 86bd b193 44bd d853 f53c 10c4 8abd
000002a0: 6fa4 a0bc 3146 c63c 334b ce3c 34e7 1bbd
000002b0: 49a1 ca3c e385 a4bc 1bf1 1dbd 7abd ba3c
000002c0: 7e62 8a3b 16bc e1bc efce ebbb a2fe 12bd
000002d0: c790 39bd 6057 4abc 5f0e a0bd 8ed3 46bd
000002e0: e591 103c d1d5 0abc 784a 09bd d0f6 d1bc
000002f0: 652f d6bc 0992 09bc ec28 aebb 8c63 7dbd
00000300: 0952 c0bb f7cc 773d eb02 cb3c 2715 1ebd
00000310: f590 96bd b8fe a3bd 85da e6bc b291 09bb
00000320: 8cd0 f3bc f840 44bb 01a1 333d 1d5c 213d
00000330: 0685 61bc cc2b 2a3d bef2 dc3c 75c6 15bd
00000340: 5765 bcbc 2c90 20bb 7c06 e2bc 6ea4 06bd
00000350: 49fa 3a3d af53 263d fa0d 5c3d 1220 61bd
00000360: fc54 f6bc a335 2e3c d5ba 3f3d 974d e0bc
00000370: 2ecd ebbc a708 573a 9e94 62bb 1ac2 b5bb
00000380: 1b2f 123d e636 ec3c acab 593d cf80 52bd
00000390: 13e7 57bc b3df 403d 14e7 2e3d 815f 90bc
000003a0: 0f36 e63b 90b4 8a3c 3040 8a3c a866 7c3c
000003b0: 511e 3cbd 80cb 353c ce88 c23b fad0 4d3d
000003c0: 51e1 da3c fc6c 22bd 9239 c1bc 63c8 a73c
000003d0: 6adc 16bd 0055 afbd bea4 cdbc 4e7f f7bc
000003e0: b72d 923c 4b6d 1bbb ea9d 7ebd 0229 bc3c
000003f0: 3b9e bcbc 9193 f63b be88 e2bc 3ed9 7a3b

bias f4 [16]
0.044699058 -0.023475524 0.05136728 -0.042912807 -0.021364614 0.013653356 0.0020718884 -0.002165697
-0.018204764 -0.03890987 0.019281065 -0.017700946 -0.0013485377 0.0460162 -0.0032489237 0.0017690696
00000000: 5c16 373d be4f c0bc 7f66 523d 57c5 2fbd
00000010: d804 afbc 53b2 5f3c 85c8 073b 5eee 0dbb
00000020: 2822 95bc f55f 1fbd 53f3 9d3c 9301 91bc
00000030: 6bc1 b0ba 7c7b 3c3d e5eb 54bb 20e0 e73a

weight f4 [16]
1.0172051 0.984458 0.98892426 0.98224926 1.0350615 0.99143475 0.97923595 0.9874728
1.0009606 1.0108789 1.0064683 0.97572273 0.98678744 1.0030723 0.99633837 0.9960049
00000000: c733 823f 7105 7c3f 242a 7d3f b074 7b3f
00000010: e57c 843f abce 7d3f 35af 7a3f 04cb 7c3f
00000020: 7a1f 803f 7b64 813f f4d3 803f f7c8 793f
00000030: 1a9e 7c3f ac64 803f 0810 7f3f 2dfa 7e3f
