models/best.pth (torch_old, 368922 bytes, 36 tensors)

weight f4 [16, 3, 4, 4]
0.02757053 -0.15857641 0.061998364 -0.029313339 -0.12534784 0.050086785 -0.1431118 -0.16125554
0.07696512 -0.028332941 -0.044512067 0.036631905 -0.14129448 0.07293296 0.07563025 0.059015434
-0.0011234679 -0.11244715 -0.07977869 0.091768004 -0.026253771 -0.055935334 -0.12022198 0.08458466
0.028972985 0.084161796 0.055939004 -0.15191868 -0.085505694 -0.037677806 -0.012887289 -0.05644652
-0.07437067 -0.10217221 0.10498945 -0.009218981 -0.10039978 -0.09101737 0.021291437 -0.006123982
-0.13831395 0.014292638 0.025841359 -0.04361695 -0.049234055 0.06792573 -0.08071467 -0.017151536
0.12020727 -0.040829465 -0.062761545 -0.069205925 -0.14438528 -0.06636174 -0.004045681 -0.031195028
0.028006751 -0.08857348 0.12963563 -0.017409857 0.10797947 0.108915806 0.00078473566 0.08663346
0.019617807 -0.083133996 0.102298364 0.06567591 0.12856358 -0.09836711 0.099923156 -0.039382227
0.0713364 0.026300468 0.06812284 0.02906376 0.108658254 0.090764105 -0.012234996 -0.024962356
0.11101031 0.14329879 -0.028528752 -0.078814544 -0.13028976 0.05627062 -0.041302554 -0.016476244
0.13888454 -0.01005884 0.13180391 0.11235415 -0.07863025 0.18490754 0.17012367 0.081599586
0.027009064 -0.087159924 -0.088036366 -0.16337244 0.09152619 0.09298996 0.04746496 -0.056186873
-0.091086015 0.079489656 0.04758262 -0.071496986 0.10331721 -0.068124995 -0.12279713 0.006295543
0.09012133 0.044286683 -0.044881016 0.020892242 0.016549084 -0.07465839 -0.015586241 -0.14337295
-0.09729853 -0.16534527 -0.12665044 0.061488695 -0.042607248 -0.07851866 -0.034166556 -0.027878042
0.08556023 -0.07720493 0.13623798 -0.12487336 0.09380914 -0.05862187 -0.030516317 -0.07060299
0.026466878 -0.047498357 0.11553296 -0.019905735 -0.08580261 0.062119015 -0.10188979 -0.12582244
-0.1430968 -0.08060653 0.02856962 -0.16137303 -0.07839879 0.0089996895 -0.0163067 0.084367216
-0.145486 -0.12189746 0.006448749 -0.12705597 0.059945717 0.072031505 0.047299117 -0.17231677
-0.043646026 -0.06546324 -0.06791171 -0.119235314 -0.07269953 0.17252526 0.095547885 -0.12796487
0.08365383 -0.089938305 -0.015867447 -0.12980232 -0.15749785 -0.104499884 -0.015910521 0.06984698
-0.07953718 -0.11672568 -0.046108827 0.081387535 0.08891278 -0.10774567 -0.025073875 -0.107785344
-0.05046925 -0.07533784 0.04284673 -0.15075848 0.037818022 0.07824702 -0.015688159 0.06110495
-0.08492046 -0.1212302 0.16372092 -0.106041335 0.11711319 0.007809374 0.016911322 -0.02088702
0.107020736 0.04600271 0.15773915 0.10526829 0.09670506 -0.085601985 0.11991724 0.041043118
0.029571263 -0.019983668 0.07662754 -0.017621279 -0.056007896 -0.03203486 0.031171542 0.05558145
-0.1237451 -0.028288085 0.09451758 0.13092355 -0.08130974 0.011186625 -0.05932815 -0.0019404921
-0.11727363 -0.04830073 0.010857595 0.09290138 -0.014800454 0.0930186 0.063733205 -0.093078524
0.051297896 0.1253912 -0.049294196 0.10111524 -0.12392638 -0.08762262 -0.018790111 0.11247338
-0.07554255 -0.15506718 0.010464218 -0.16378699 -0.1552861 -0.06148785 0.020968819 -0.16381414
0.10548442 0.046941023 0.08518642 0.015873043 -0.14498906 -0.07319335 0.07233698 -0.064206295
00000000: 98db e13c db61 22be fff1 7d3d 8722 f0bc
00000010: 2f5b 00be cd27 4d3d e68b 12be 2c20 25be
00000020: e49f 9d3d 7c1a e8bc 4952 36bd 560b 163d
00000030: 80af 10be e05d 953d 08e4 9a3d 2bba 713d
00000040: 5441 93ba b14a e6bd 0363 a3bd ddf0 bb3d
00000050: 2612 d7bc 731c 65bd f136 f6bd b93a ad3d
00000060: c158 ed3c 055d ac3d 4c20 653d 9290 1bbe
00000070: 9c1d afbd 0b54 1abd 3525 53bc 7734 67bd
00000080: a64f 98bd aa3f d1bd b504 d73d 350b 17bc
00000090: 669e cdbd 5167 babd 616b ae3c afab c8bb
000000a0: 2ca2 0dbe ab2b 6a3c 42b1 d33c b0a7 32bd
000000b0: a6a9 49bd a51c 8b3d bc4d a5bd 6181 8cbc
000000c0: 3b2f f63d cc3c 27bd 2089 80bd d6bb 8dbd
000000d0: bcd9 13be aae8 87bd a291 84bb b78c ffbc
000000e0: 6a6e e53c 0366 b5bd 34bf 043e 1e9f 8ebc
000000f0: 5724 dd3d 400f df3d b8b6 4d3a e26c b13d
00000100: 86b5 a03c 2842 aabd ce81 d13d 1781 863d
00000110: 2ca6 033e b274 c9bd 83a4 cc3d 424f 21bd
00000120: d218 923d 1474 d73c fd83 8b3d 1f17 ee3c
00000130: 3888 de3d 88e2 b93d 4b75 48bc db7d ccbc
00000140: 6059 e33d ebbc 123e 21b5 e9bc 8569 a1bd
00000150: ae6a 05be 067c 663d de2c 29bd 30f9 86bc
00000160: c037 0e3e d5cd 24bc 9bf7 063e ef19 e63d
00000170: e608 a1bd 6758 3d3e e634 2e3e af1d a73d
00000180: 1d42 dd3c e780 b2bd 694c b4bd 1b4b 27be
00000190: 1572 bb3d 8571 be3d 9e6a 423d 3524 66bd
000001a0: 4e8b babd 79cb a23d fee5 423d 036d 92bd
000001b0: f997 d33d 1e85 8bbd 107d fbbd d84a ce3b
000001c0: 8891 b83d f465 353d 28d5 37bd 3526 ab3c
000001d0: f291 873c 7fe6 98bd 6f5d 7fbc 5cd0 12be
000001e0: 7444 c7bd 4550 29be a7b0 01be 92db 7b3d
000001f0: f084 2ebd 64ce a0bd 3bf2 0bbd 7e60 e4bc
00000200: 343a af3d 9e1d 9ebd f881 0b3e 9bbd ffbd
00000210: 021f c03d 7c1d 70bd 5bfd f9bc 4d98 90bd
00000220: 11d1 d83c a38d 42bd 8b9c ec3d 5a11 a3bc
00000230: 47b9 afbd 8270 7e3d 98ab d0bd 99d7 00be
00000240: f887 12be 0915 a5bd d60a ea3c f93e 25be
00000250: 8b8f a0bd 6f73 133c a195 85bc b8c8 ac3d
00000260: 48fa 14be 60a5 f9bd 0750 d33b f61a 02be
00000270: a489 753d 4185 933d b8bc 413d cf73 30be
00000280: 2dc6 32bd 9711 86bd 4b15 8bbd a531 f4bd
00000290: 7ee3 94bd 76aa 303e 9cae c33d 3909 03be
000002a0: b352 ab3d 9331 b8bd 73fc 81bc e6ea 04be
000002b0: 1e47 21be 0904 d6bd c856 82bc ef0b 8f3d
000002c0: 64e4 a2bd e00d efbd 9cdc 3cbd 82ae a63d
000002d0: e717 b63d c3a9 dcbd ba67 cdbc 90be dcbd
000002e0: d8b8 4ebd ba4a 9abd 0e80 2f3d 6e60 1abe
000002f0: 12e7 1a3d f93f a03d 7484 80bc 2f49 7a3d
00000300: c7ea adbd 8a47 f8bd 75a6 273e 332c d9bd
00000310: 0ad9 ef3d c7e5 ff3b 9d89 8a3c 411b abbc
00000320: b02d db3d 566d 3c3d 5f86 213e e796 d73d
00000330: 4d0d c63d 1850 afbd 2c97 f53d d41c 283d
00000340: 6f3f f23c cab4 a3bc e6ee 9c3d 805a 90bc
00000350: 8968 65bd fc36 03bd 765b ff3c 60a9 633d
00000360: 126e fdbd 6abc e7bc 6f92 c13d d310 063e
00000370: b985 a6bd 1b48 373c 1302 73bd 1c58 feba
00000380: 282d f0bd fcd6 45bd 0ee4 313c 1443 be3d
00000390: 9a7d 72bc 8980 be3d 8e86 823d f49f bebd
000003a0: be1d 523d 8d66 003e b6e8 49bd 8215 cf3d
000003b0: 1dcd fdbd 7d73 b3bd b8ed 99bc 7258 e63d
000003c0: 0db6 9abd eec9 1ebe 1d72 2b3c c7b7 27be
000003d0: 5203 1fbe afda 7bbd cdc6 ab3c e5be 27be
000003e0: 3708 d83d 3b45 403d 3876 ae3d 2f08 823c
000003f0: 0378 14be 65e6 95bd 6925 943d 977e 83bd

bias f4 [16]
0.040688705 -0.098819 -0.11701976 -0.02745975 -0.12306386 0.008517016 0.10825243 -0.0240443
0.053685907 -0.14361213 -0.0006145471 0.09084396 0.04121404 -0.115759954 -0.074732766 0.04249544
00000000: 33a9 263d 9e61 cabd 0ea8 efbd 45f3 e0bc
00000010: e808 fcbd f48a 0b3c 73b3 dd3d 8df8 c4bc
00000020: c1e5 5b3d 0f0f 13be 8f19 21ba 660c ba3d
00000030: 0ed0 283d 8e13 edbd 7e0d 99bd b30f 2e3d

weight f4 [16]
0.9740571 0.99511325 0.9865903 0.9904865 1.0111544 1.0011541 1.0136105 0.97708565
0.99756294 0.9961221 1.0106915 1.0050151 1.0006835 0.97838277 1.0261652 1.0000201
00000000: ce5b 793f bebf 7e3f 2f91 7c3f 8690 7d3f
00000010: 826d 813f d125 803f fdbd 813f 4922 7a3f
00000020: 4960 7f3f dc01 7f3f 575e 813f 56a4 803f
00000030: 6616 803f 4b77 7a3f 6259 833f a900 803f

bias f4 [16]
0.00796272 0.0054135993 0.013504323 -0.0072401315 0.04261283 0.014895116 0.026979519 0.00015133459
0.0019394022 -0.033181254 0.041028287 0.023240289 -0.036149643 0.04384615 0.047573324 0.01831325
00000000: 1176 023c 9064 b13b 3c41 5d3c a03e edbb
00000010: ca8a 2e3d a50a 743c 2704 dd3c 92af 1e39
00000020: 8a33 fe3a 11e9 07bd 470d 283d 6b62 be3c
00000030: a611 14bd 0598 333d 3fdc 423d ab05 963c

running_mean f4 [16]
0.12585244 -0.2221621 -0.057740055 0.06325937 -0.14765824 0.11439991 0.18146232 0.022889746
-0.062420648 -0.2202146 -0.056603823 0.025386417 -0.00796449 -0.10348948 -0.09604644 -0.054979656
00000000: 76df 003e 767e 63be d680 6cbd 218e 813d
00000010: b933 17be 804a ea3d 42d1 393e 4783 bb3c
00000020: cbac 7fbd f07f 61be 69d9 67bd 2df7 cf3c
00000030: 7e7d 02bc 4bf2 d3bd ffb3 c4bd 5932 61bd

running_var f4 [16]
0.2527012 0.3241982 0.21352156 0.44181404 0.116904676 0.47152087 0.3695768 0.13306054
0.15547483 0.036707297 0.29075143 0.2366173 0.044967286 0.03424184 0.15027256 0.18973283
00000000: 0d62 813e 4efd a53e 65a5 5a3e 7335 e23e
00000010: b86b ef3d 2f6b f13e 2c39 bd3e 0641 083e
00000020: cb34 1f3e 645a 163d 5fdd 943e ce4b 723e
00000030: 9e2f 383d 2c41 0c3d 0de1 193e 5349 423e

weight f4 [32, 16, 4, 4]
0.02407831 -0.056666605 0.03195639 -0.013248474 0.015956627 -0.04165995 0.014647676 -0.050930392
0.0011405417 -0.06576258 0.028050132 -0.020996144 0.048383858 0.031228574 -0.0037078948 -0.014511937
-0.034241673 0.02912404 -0.05543208 -0.0021744184 -0.045666 0.023683768 0.04996893 -0.02709794
-0.04278433 0.056747127 0.02325017 0.02084835 0.033822317 -0.037898924 0.024749398 -0.023757601
-0.038593836 0.0052609006 0.012779397 -0.010365418 -0.057196137 -0.016650392 -0.05267641 0.060167477
-0.05209435 0.024911843 0.040258147 -0.0056219846 -0.0232234 -0.010392027 -0.018407369 -0.0026947407
0.022401059 -0.017368302 -0.018204123 -0.015442819 -0.056966837 -0.0743576 0.02241109 -0.04219185
-0.07335441 0.0117188785 -0.03570512 -0.042304013 -0.011477006 -0.04183922 -0.04424673 0.06416425
0.04345323 -0.036080573 0.04410049 0.026719857 0.05249214 0.059171665 -0.08131169 0.013297025
-0.021620104 -0.030974185 -0.021627942 -0.017608523 -0.032508478 -0.039296776 0.018630197 0.010356413
-0.025754148 -0.04133241 -0.04269702 -0.0674494 -0.037825003 0.017937496 -0.05070986 0.03101654
-0.0072230925 0.02371074 -0.06791796 0.035036214 0.0013210617 -0.006863352 -0.008611524 -0.011431823
-0.06140236 -0.058229767 -0.010862343 0.05837848 -0.0540707 0.025239434 0.033584103 -0.04811014
0.045581046 0.006128938 0.0024115476 0.009924394 0.03487864 -0.05753946 -0.028885102 0.06817661
-0.035924908 0.009210679 -0.0311177 0.011717502 -0.017090052 -0.023735717 -0.06666376 0.050118268
-0.023197377 -0.0019820458 -0.021141369 0.030839067 -0.016260555 0.02352731 -0.032135222 -0.03785005
0.030926263 -0.019197093 0.03398918 -0.0025992838 -0.006686379 0.036475405 0.030053534 0.053814568
-0.015779756 0.054538634 -0.0054732445 -0.028858395 -0.014814603 -0.020051641 0.049279343 0.03637383
-0.038950574 -0.03151332 0.044932798 0.030665664 0.025656804 0.009586207 0.025069613 -0.034393404
0.00986189 -0.018508395 0.026169928 -0.018993732 0.0054133814 0.03400524 -0.00817728 0.044637855
-0.0044375025 0.058567755 0.018752199 0.031957272 0.061471928 0.026139544 0.036027603 0.049171932
0.0062803295 -0.037194863 -0.02299863 0.028830376 -0.028176092 -0.040733416 -0.019868089 -0.059449002
0.026800554 0.013628224 -0.04997637 -0.021820575 0.060656905 0.07296195 -0.025494816 0.00044679118
0.031471044 0.05836539 -0.04217634 -0.05315211 0.0372884 -0.012513986 0.036048032 -0.029519554
0.0627739 -0.00489268 -0.036228478 0.042223554 -0.014227095 0.017014515 0.055828445 -0.022926982
0.03747657 -0.019768277 -0.012906322 0.004176909 -0.026259532 0.005510922 0.045732692 0.041513983
-0.018256929 0.050215032 -0.007229481 -0.017324932 -0.029128399 0.010511173 -0.019402752 0.007003142
-0.026549652 -0.03807769 0.017299488 -0.007305385 0.00027064988 -0.0504687 0.039754387 -0.025949461
0.004278709 0.04345528 -0.012539303 -0.026119256 -0.049190357 0.010896952 0.007213077 -0.024174338
-0.0124906525 0.0061345766 -0.0023927817 0.022832762 -0.060362183 -0.040100582 0.0326224 -0.0049825795
0.02822311 0.0050402507 -0.032269396 -0.01584672 -0.055384908 0.011913767 0.03624684 -0.027067196
0.052148595 0.082702205 0.020880656 0.062238213 0.05823731 0.02256102 0.05101589 0.031422663
00000000: e03f c53c 3e1b 68bd b4e4 023d 2110 59bc
00000010: 79b7 823c a0a3 2abd cefc 6f3c 639c 50bd
00000020: 3b7e 953a 88ae 86bd 64c9 e53c 1b00 acbc
00000030: 272e 463d 11d3 ff3c 2700 73bb 7ac3 6dbc
00000040: ff40 0cbd 8a95 ee3c c00c 63bd b080 0ebb
00000050: 460c 3bbd 7604 c23c 39ac 4c3d 80fc ddbc
00000060: 9f3e 2fbd ad6f 683d 2477 be3c 29ca aa3c
00000070: 4589 0a3d e73b 1bbd 40bf ca3c 4d9f c2bc
00000080: 9214 1ebd a263 ac3b ad60 513c b7d3 29bc
00000090: 7f46 6abd 6766 88bc 38c3 57bd 2c72 763d
000000a0: e360 55bd ec13 cc3c bae5 243d a038 b8bb
000000b0: 003f bebc 5243 2abc 0dcb 96bc 3f9a 30bb
000000c0: 6d82 b73c f847 8ebc d020 95bc e103 7dbc
000000d0: 0f56 69bd cc48 98bd 7697 b73c 5cd1 2cbd
000000e0: d63a 96bd 8a00 403c 883f 12bd f946 2dbd
000000f0: 0d0a 3cbc 9a5f 2bbd 0f3c 35bd 8c68 833d
00000100: 04fc 313d 39c9 13bd b7a2 343d 9ae3 da3c
00000110: 0002 573d fd5d 723d be86 a6bd c4db 593c
00000120: a51c b1bc 93bd fdbc 152d b1bc c03f 90bc
00000130: 9c27 05bd a8f5 20bd 5b9e 983c f2ad 293c
00000140: 5dfa d2bc 2c4c 29bd 12e3 2ebd e922 8abd
00000150: 64ee 1abd a8f1 923c 24b5 4fbd 6616 fe3c
00000160: b1af ecbb 073d c23c 9218 8bbd 2282 0f3d
00000170: 7a27 ad3a f8e5 e0bb 5917 0dbc 8a4c 3bbc
00000180: 0b81 7bbd 5682 6ebd f8f7 31bc 461e 6f3d
00000190: 3d79 5dbd eec2 ce3c 7c8f 093d 230f 45bd
000001a0: 31b3 3a3d 42d5 c83b 0e0b 1e3b ed99 223c
000001b0: e8dc 0e3d 7fae 6bbd 73a0 ecbc 2ea0 8b3d
000001c0: ff25 13bd 63e8 163c 8cea febc c4fa 3f3c
000001d0: 7000 8cbc 6871 c2bc 0287 88bd d048 4d3d
000001e0: 6d08 bebc 36e5 01bb aa30 adbc 36a2 fc3c
000001f0: db34 85bc 58bc c03c 39a0 03bd a708 1bbd
00000200: 1359 fd3c 3943 9dbc 3d38 0b3d bf58 2abb
00000210: 6a19 dbbb 3c67 153d d432 f63c aa6c 5c3d
00000220: 8c44 81bc e763 5f3d e758 b3bb 7168 ecbc
00000230: f3b8 72bc 5743 a4bc 23d9 493d bafc 143d
00000240: a38a 1fbd 1c14 01bd 740b 383d 8f36 fb3c
00000250: 382e d23c 770f 1d3c ca5e cd3c 19e0 0cbd
00000260: c493 213c eb9e 97bc 5162 d63c be98 9bbc
00000270: bc62 b13b 1449 0b3d 00fa 05bc 2fd6 363d
00000280: 7868 91bb bee4 6f3d 369e 993c a1e5 023d
00000290: fdc9 7b3d 9922 d63c ae91 133d 8268 493d
000002a0: 39cb cd3b a459 18bd 9f67 bcbc ae2d ec3c
000002b0: 8cd1 e6bc 15d8 26bd 67c2 a2bc cc80 73bd
000002c0: d68c db3c ea48 5f3c 06b4 4cbd 10c1 b2bc
000002d0: 6073 783d 136d 953d 81da d0bc 4c3f ea39
000002e0: c8e7 003d 8c10 6f3d 19c1 2cbd 07b6 59bd
000002f0: b9bb 183d 7607 4dbc 1aa7 133d fed2 f1bc
00000300: 9a8f 803d c652 a0bb 5064 14bd 9bf2 2c3d
00000310: c318 69bc 0662 8b3c 5eac 643d 5ed1 bbbc
00000320: 0881 193d 15f1 a1bc 0a75 53bc 74de 883b
00000330: 3b1e d7bc f794 b43b 3452 3b3d 910a 2a3d
00000340: 8e8f 95bc 47ae 4d3d 48e5 ecbb 04ed 8dbc
00000350: ae9e eebc 0e37 2c3c 85f2 9ebc 9d7a e53b
00000360: a87e d9bc 5af7 1bbd a8b7 8d3c 0362 efbb
00000370: 03e6 8d39 44b8 4ebd 7fd5 223d f793 d4bc
00000380: 6a34 8c3b 2afe 313d a671 4dbc 0df8 d5bc
00000390: d47b 49bd 2189 323c ad5b ec3b 4309 c6bc
000003a0: 98a5 4cbc 8f04 c93b 37d0 1cbb c60b bb3c
000003b0: 563e 77bd 8240 24bd 119f 053d e844 a3bb
000003c0: 2734 e73c b028 a53b ea2c 04bd fbd0 81bc
000003d0: 49db 62bd f631 433c 9177 143d 06bc ddbc
000003e0: c499 553d c65f a93d e90d ab3c 7fed 7e3d
000003f0: 3f8a 6e3d e3d1 b83c 0af6 503d 0db5 003d

bias f4 [32]
0.05488511 -0.0026169438 -0.033190127 0.013954173 0.046916384 0.03954271 0.040147282 0.033270396
-0.052703056 -0.030917952 0.04615746 -0.013561768 -0.025531383 0.017495008 -0.04520847 0.03327535
0.050086237 0.045507986 -0.06089504 0.014233622 -0.047402818 0.0114933215 0.051752865 0.013001111
-0.02247659 -0.03368977 -0.023834549 -0.026502803 0.041922327 -0.05042605 -0.013873588 -0.037871055
00000000: 36cf 603d 0881 2bbb 5ff2 07bd 0ba0 643c
00000010: 652b 403d 89f7 213d 7a71 243d 8a46 083d
00000020: 29df 57bd a547 fdbc 9b0f 3d3d 2e32 5ebc
00000030: 3127 d1bc b151 8f3c 842c 39bd bc4b 083d
00000040: 3a27 4d3d 9566 3a3d 146d 79bd 2334 693c
00000050: 7529 42bd 7c4e 3c3c d0fa 533d 9d02 553c
00000060: d320 b8bc 49fe 09bd ac40 c3bc 681c d9bc
00000070: bfb6 2b3d 8c8b 4ebd 0c4e 63bc ae1e 1bbd

weight f4 [32]
0.99233484 0.9984769 0.98001975 1.000975 0.9789406 1.0035717 0.9768898 1.0170664
1.0104715 0.99546695 1.0101421 0.98507977 1.037805 0.9775314 0.97219384 0.97153676
1.0184679 1.0176947 0.9768486 1.0251539 0.99210465 0.9898569 1.0229136 1.012175
0.99509984 1.0010569 1.0245407 1.0182033 0.982246 1.010485 1.0110902 0.9747366
00000000: a809 7e3f 2f9c 7f3f 93e2 7a3f f31f 803f
00000010: da9b 7a3f 0a75 803f 7315 7a3f 3b2f 823f
00000020: 2157 813f ecd6 7e3f 564c 813f 302e 7c3f
00000030: cbd6 843f 7f3f 7a3f b2e1 783f a2b6 783f
00000040: 285d 823f d243 823f c012 7a3f 3e38 833f
00000050: 92fa 7d3f 4367 7d3f d5ee 823f f38e 813f
00000060: ddbe 7e3f a222 803f 2624 833f 7c54 823f
00000070: 7974 7b3f 9357 813f 676b 813f 5688 793f

bias f4 [32]
0.021330241 0.057339974 0.030038767 -0.04099765 0.04041482 -0.029349187 -0.016415881 0.057192333
-0.03240206 -0.030902956 -0.01629312 0.030357122 0.0898292 -0.009916161 -0.023269527 0.0045046625
0.0006591208 0.02645069 -0.023519918 -0.0015012189 0.030618094 -0.035581518 0.0002518319 0.07134011
0.022142112 -0.009345708 0.091674514 -0.014880297 -0.033478264 0.019338375 0.0011247058 0.02507819
00000000: c2bc ae3c 52dd 6a3d dc13 f63c 27ed 27bd
00000010: 038a 253d b56d f0bc 997a 86bc 8242 6a3d
00000020: 06b8 04bd 3228 fdbc 2679 85bc 80af f83c
00000030: 5ff8 b73d 6577 22bc bc9f bebc d99b 933b
00000040: d9c8 2c3a 1eaf d83c d8ac c0bc 8cc4 c4ba
00000050: ccd2 fa3c edbd 11bd 4e08 8439 c31a 923d
00000060: 6063 b53c be1e 19bc d9bf bb3d 7dcc 73bc
00000070: 8120 09bd 836b 9e3c dd6a 933a c770 cd3c

running_mean f4 [32]
-0.03457267 0.00978141 -0.20239908 -0.2675802 -0.1246597 -0.2583159 -0.019769033 -0.084868066
-0.3440398 -0.31414774 -0.24500853 -0.26856193 0.004963977 0.41428122 -0.41927755 -0.28788453
-0.26396734 -0.20397961 -0.321022 -0.18279527 0.06692253 -0.16198225 -0.18535613 0.0006666898
-0.08910737 -0.30884698 -0.037432507 -0.30030078 -0.17067513 -0.47372106 -0.11768579 -0.3219507
00000000: 129c 0dbd 3542 203c b441 4fbe 4600 89be
00000010: 964d ffbd fb41 84be abf2 a1bc 4fcf adbd
00000020: fc25 b0be f9d7 a0be 84e3 7abe f380 89be
00000030: dba8 a23b ab1c d43e 8cab d6be 9a65 93be
00000040: ba26 87be 08e0 50be ff5c a4be af2e 3bbe
00000050: ae0e 893d adde 25be ffcd 3dbe ccc4 2e3a
00000060: ed7d b6bd 3121 9ebe d452 19bd 06c1 99be
00000070: 76c5 2ebe 918b f2be 3f05 f1bd b9d6 a4be

running_var f4 [32]
0.5488682 0.12453347 0.66001767 0.22373983 0.39597154 0.18798168 0.69722646 0.29266858
0.26572394 0.17751253 0.68809205 0.2886735 0.27231652 0.71307546 0.17002915 0.62986517
0.53333277 0.42097673 0.22596759 0.5501171 0.7944802 0.23431969 0.5666025 0.25555304
0.29868233 0.7687031 0.22260776 0.48254192 0.17629924 0.8179804 0.6110136 0.23270424
00000000: a082 0c3f 670b ff3d ebf6 283f 0e1c 653e
00000010: c8bc ca3e 457e 403e 6f7d 323f a8d8 953e
00000020: f80c 883e d8c5 353e cd26 303f 03cd 933e
00000030: 126d 8b3e 1d8c 363f 1f1c 2e3e d83e 213f
00000040: 7f88 083f 438a d73e 0c64 673e 79d4 0c3f
00000050: 0e63 4b3f 80f1 6f3e dd0c 113f d9d7 823e
00000060: e4ec 983e bac9 443f 4af3 633e bc0f f73e
00000070: ca87 343e 2a67 513f 636b 1c3f 054a 6e3e

weight f4 [64, 32, 4, 4]
0.0008848492 -0.023025163 -0.022087285 0.031765144 0.025989601 0.014596233 0.017474573 0.025484214
0.019732043 0.026095903 0.020509295 -0.014596839 0.036871824 0.014873073 0.026567884 0.015019053
0.010537728 0.0021977786 -0.028417932 -0.011060749 -0.0045665125 -0.008590406 0.01616388 0.004621358
0.00084021187 0.0054911887 -0.0071335565 0.022782914 -0.0131639065 -0.020338198 0.03195719 -0.045501344
0.01567662 0.031807337 -0.034660354 -0.02525512 0.024677332 -0.030593704 0.0008711706 -0.021992624
-0.0063471757 0.019962432 -0.035885755 -0.002501812 -0.020061621 -0.0019902638 -0.03560526 0.029723452
-0.009728272 0.0007337574 -0.011518474 0.054119922 0.038580373 0.010453377 -0.00012798051 0.010454038
0.018844396 0.0074103577 0.04202244 0.007479368 0.007946889 0.039654125 0.003530766 -0.0027483709
0.017774124 0.02683576 0.03697748 7.828885e-05 0.011605826 -0.027527586 0.01745269 -0.007841128
0.031852484 -0.018246194 0.01126704 0.014173256 -0.031226752 -0.0031259137 0.010048947 0.03348612
0.054267198 0.03007591 0.04826812 -0.014567314 -0.0054869037 0.016659208 0.024052149 0.02190664
-0.010574151 0.051502373 -0.01850163 0.00038855663 0.006532479 0.016777765 0.025829619 0.050680064
-0.053180933 0.023481531 0.037758872 -0.03358548 -0.033211477 0.02196637 0.010504746 -0.02632094
-0.008826276 -0.032394316 -0.033070333 0.014590661 -0.040915564 0.0042359917 -0.009676631 -0.0252531
-0.023323923 0.026402976 -0.0074771666 -0.046180196 -0.012968022 -0.020054696 0.001323759 -0.016437856
-0.015175994 -0.04438932 0.020285675 0.012694126 -0.026090413 0.016300872 -0.04253054 0.009576824
0.014693811 -0.012426448 0.027362319 -0.021926165 0.031116927 0.010932411 0.006002962 -4.945972e-05
-0.013846357 0.049171623 0.003699284 0.030177062 -0.000878251 0.037390225 -0.004997025 0.006097006
0.0045737904 0.0127494 0.028962994 0.016518133 0.03967083 -0.018205998 -0.014261113 0.020217182
0.00047667866 0.04957735 0.004666493 0.033578854 0.00348355 -0.020849552 0.038661636 0.008862824
0.03744675 -0.032527737 0.020412777 0.044083912 0.034455296 -0.012165828 0.05106554 -0.031774703
0.0074464614 -0.021046814 -0.030045727 -0.001187859 0.008021736 -0.009383207 -0.016637778 0.019750653
-0.0031996968 0.029000979 0.023343312 0.008930844 0.004323754 -0.0012734054 -0.02644832 0.020016195
-0.02603314 0.01543198 0.03190416 -0.027962841 0.033091433 0.039473943 0.016417243 -0.027424095
-0.02972461 0.009260895 -0.047092367 -0.0074942294 -0.0190478 -0.058348168 -0.009097864 -0.027208468
0.0023734467 -0.0007239809 -0.010678376 -0.037440352 -0.03055356 -0.020653667 -0.02866385 0.00063578854
-0.0531595 -0.051222153 0.012283772 -0.04021841 -0.017795535 0.020027373 0.018636772 -0.020858394
0.024420002 -0.03233751 -0.027879898 -0.0018384932 0.019983489 -0.0363472 0.026446724 -0.012371529
-0.015940292 0.0270029 0.035837933 0.015152263 -0.019586032 0.03427854 0.020073146 0.030546602
0.025789253 0.06892448 -0.008611652 0.0013900001 0.01687796 0.03407964 0.038607255 0.030554071
0.022369469 0.00060784427 0.014864828 -0.02921885 -0.036714 0.020539295 -0.024689605 -0.029359274
-0.011543197 0.040752143 -0.033048887 0.03142644 0.025892213 -0.010753022 0.024838958 0.023972342
00000000: 3af5 673a 449f bcbc 65f0 b4bc 2b1c 023d
00000010: 25e8 d43c 0a25 6f3c d626 8f3c 45c4 d03c
00000020: 18a5 a13c 13c7 d53c 1c03 a83c 9527 6fbc
00000030: e906 173d 31ae 733c e4a4 d93c 7912 763c
00000040: 6fa6 2c3c 9b08 103b b9cc e8bc 2538 35bc
00000050: afa2 95bb c6be 0cbc 1d6a 843c c36e 973b
00000060: aa41 5c3a 6eef b33b 9cc0 e9bb 3ca3 ba3c
00000070: 6dad 57bc 4b9c a6bc 8be5 023d 9e5f 3abd
00000080: 416c 803c 6948 023d 04f8 0dbd d3e3 cebc
00000090: 1e28 ca3c a69f fabc 455f 643a e029 b4bc
000000a0: f8fb cfbb 4188 a33c f1fc 12bd 71f5 23bb
000000b0: 4558 a4bc 166f 02bb d2d6 11bd 997e f33c
000000c0: 5563 1fbc a059 403a fbb7 3cbc daac 5d3d
000000d0: 7406 1e3d a444 2b3c 8232 06b9 6a47 2b3c
000000e0: 905f 9a3c 96d2 f23b b91f 2c3d 7c15 f53b
000000f0: ab33 023c 5d6c 223d 6c64 673b 031e 34bb
00000100: 0a9b 913c abd6 db3c b375 173d 022f a438
00000110: 5d26 3e3c 8881 e1bc f2f8 8e3c 1378 00bc
00000120: c077 023d 0b79 95bc 6499 383c f236 683c
00000130: 3fcf ffbc 21dc 4cbb 57a4 243c be28 093d
00000140: 4847 5e3d c161 f63c cbb4 453d beab 6ebc
00000150: 7ccb b3bb e478 883c 0309 c53c 8e75 b33c
00000160: 343f 2dbc 27f4 523d bb90 97bc 30b7 cb39
00000170: 680e d63b 8671 893c a398 d33c e695 4f3d
00000180: 40d4 59bd 575c c03c 0ca9 1a3d ee90 09bd
00000190: c208 08bd d1f2 b33c 191c 2c3c 039f d7bc
000001a0: 169c 10bc e7af 04bd c274 07bd ab0d 6f3c
000001b0: 1497 27bd 13ce 8a3b bb8a 1ebc 97df cebc
000001c0: d011 bfbc 0e4b d83c 0503 f5bb 7227 3dbd
000001d0: d477 54bc bf49 a4bc fb81 ad3a afa8 86bc
000001e0: bba4 78bc 93d1 35bd 252e a63c 06fb 4f3c
000001f0: 90bb d5bc 6889 853c 8134 2ebd 1ce8 1c3c
00000200: 4fbe 703c 4d98 4bbc f126 e03c 809e b3bc
00000210: ede8 fe3c db1d 333c 7fb4 c43b f872 4fb8
00000220: d5db 62bc 2f68 493d b06f 723b e335 f73c
00000230: 6d3a 66ba 7e26 193d 15be a3bb 65c9 c73b
00000240: bcdf 953b dce2 503c cd43 ed3c 0951 873c
00000250: e17d 223d bf24 95bc 71a7 69bc 819e a53c
00000260: baea f939 9f11 4b3d 61e9 983b fb89 093d
00000270: 454c 643b aecc aabc aa5b 1e3d 6135 113c
00000280: c361 193d ce3b 05bd b238 a73c 5591 343d
00000290: ff20 0d3d 2e53 47bc 1a2a 513d 3126 02bd
000002a0: 7201 f43b 5e6a acbc 7522 f6bc efb1 9bba
000002b0: 996d 033c 06bc 19bc f34b 88bc 1fcc a13c
000002c0: 01b2 51bb 7693 ed3c 793a bf3c ad52 123c
000002d0: 47ae 8d3b 65e8 a6ba 26aa d8bc 01f9 a33c
000002e0: 7443 d5bc 6ad6 7c3c f0ad 023d 5412 e5bc
000002f0: e28a 073d 6eaf 213d 747d 863c 7fa8 e0bc
00000300: 0681 f3bc 02bb 173c ede3 40bd 2792 f5bb
00000310: 220a 9cbc 7dfe 6ebd 350f 15bc 4be4 debc
00000320: d48b 1b3b 89c9 3dba 5bf4 2ebc 0e5b 19bd
00000330: 764b fabc e131 a9bc 73d0 eabc 0cab 263a
00000340: c7bd 59bd 52ce 51bd e041 493c 0fbc 24bd
00000350: f1c7 91bc 7210 a43c 25ac 983c 39df aabc
00000360: 750c c83c 5674 04bd 6264 e4bc 98f9 f0ba
00000370: 6ab4 a33c cde0 14bd cda6 d83c f4b1 4abc
00000380: 3795 82bc 3035 dd3c ccca 123d 3341 783c
00000390: e372 a0bc a867 0c3d 7070 a43c de3c fa3c
000003a0: fc43 d33c 4728 8d3d e317 0dbc aa30 b63a
000003b0: a643 8a3c 1897 0b3d a422 1e3d 884c fa3c
000003c0: 2d40 b73c bd57 1f3a 9c8b 733c 5f5c efbc
000003d0: 6b61 16bd 0642 a83c db41 cabc dc82 f0bc
000003e0: ad1f 3dbc b8eb 263d 455e 07bd 03b9 003d
000003f0: e81b d43c 712d 30bc 127b cb3c a561 c43c

bias f4 [64]
-0.0038581963 -0.008406493 0.0067438935 0.019915601 -0.023436474 -0.013524331 0.01470248 0.035371833
-0.0057963138 -0.0323907 0.011740857 0.0061732987 -0.043326106 -0.014122426 0.011199046 0.010031689
-0.038581375 0.041539993 0.0150366 0.02873454 0.008440505 0.004433245 -0.028622784 -0.011837722
-0.004962563 -0.032599565 0.04255682 -0.023874342 -0.010748412 0.024391944 -0.032373186 0.0016595203
-0.013886379 0.0408947 0.014075189 -0.0428022 0.022157876 -0.04285433 0.006607451 0.04279921
-0.0067128735 0.028074227 -0.04190046 0.02782755 0.0025817475 0.014440383 -0.025681932 -0.027279314
0.022238111 -0.027701858 0.0004026499 0.020576898 0.038438477 0.010728226 0.026675116 -0.016866501
-0.005038569 0.0023467385 0.019537836 -0.022308009 -0.014705497 -0.021803573 0.028366493 0.026988475
00000000: cbd9 7cbb 63bb 09bc e1fb dc3b 0b26 a33c
00000010: d9fd bfbc 2895 5dbc ace2 703c 0ee2 103d
00000020: 01ef bdbb 1cac 04bd b95c 403c 6249 ca3b
00000030: b776 31bd bf61 67bc 347c 373c f45b 243c
00000040: 8107 1ebd d725 2a3d 125c 763c b364 eb3c
00000050: 0b4a 0a3c c144 913b 547a eabc 01f3 41bc
00000060: ff9c a2bb 1f87 05bd 0f50 2e3d 2094 c3bc
00000070: 1c1a 30bc 9dd1 c73c bf99 04bd 4384 d93a
00000080: b283 63bc 3381 273d 9f9b 663c 5c51 2fbd
00000090: 6f84 b53c 0688 2fbd 5183 d83b 394e 2f3d
000000a0: aaf7 dbbb ecfb e53c d19f 2bbd 9af6 e33c
000000b0: 8932 293b 5b97 6c3c ea62 d2bc de78 dfbc
000000c0: b32c b63c 02ef e2bc c11a d339 e290 a83c
000000d0: aa71 1d3d 71c5 2f3c c685 da3c 9e2b 8abc
000000e0: 951a a5bb bdcb 193b d00d a03c 49bf b6bc
000000f0: 53ef 70bc 689d b2bc d960 e83c ef16 dd3c

weight f4 [64]
0.99770343 0.9973581 0.987102 0.9982185 1.0029207 1.0077357 1.0029426 0.99804115
1.0053178 1.000577 0.9925791 0.97991 0.9950866 0.997809 1.0124816 0.98605424
0.9934864 0.99312294 0.9880682 1.0010769 0.9899836 0.9897384 0.98759764 1.0051116
1.0005606 0.9984475 0.99830025 1.0047942 0.998278 0.9854702 0.9931573 0.9953689
0.98130375 1.0066638 0.9957624 0.9992146 0.9939944 1.0040022 0.98923784 0.9990184
0.9909395 0.9818561 0.96633804 0.98661155 0.99384665 0.9883332 1.019446 0.9914513
0.99195004 0.9934721 1.0141706 1.0049812 1.0033396 0.9994296 1.0095229 0.98795706
1.0083097 0.9982798 0.99043614 0.9905364 1.0062512 0.9978171 0.9903233 0.9945583
00000000: 7e69 7f3f dc52 7f3f b7b2 7c3f 3f8b 7f3f
00000010: b55f 803f 7cfd 803f 6c60 803f a07f 7f3f
00000020: 41ae 803f e812 803f aa19 7e3f 62db 7a3f
00000030: ffbd 7e3f 6970 7f3f ff98 813f 0d6e 7c3f
00000040: 2055 7e3f 4e3d 7e3f 0af2 7c3f 4a23 803f
00000050: 916f 7d3f 7f5f 7d3f 33d3 7c3f 7fa7 803f
00000060: 5f12 803f 419a 7f3f 9b90 7f3f 199d 803f
00000070: 268f 7f3f c647 7c3f 8f3f 7e3f 7fd0 7e3f
00000080: b936 7b3f 5cda 803f 49ea 7e3f 87cc 7f3f
00000090: 6b76 7e3f 2583 803f b13e 7d3f abbf 7f3f
000000a0: 36ae 7d3f ec5a 7b3f ee61 773f 9392 7c3f
000000b0: bc6c 7e3f 6803 7d3f 357d 823f c1cf 7d3f
000000c0: 70f0 7d3f 3054 7e3f 58d0 813f 39a3 803f
000000d0: 6f6d 803f 9eda 7f3f 0c38 813f c1ea 7c3f
000000e0: 4b10 813f 448f 7f3f 398d 7d3f cb93 7d3f
000000f0: d7cc 803f f170 7f3f d485 7d3f 5f9b 7e3f

bias f4 [64]
-0.06050877 0.030096855 0.048446145 -0.03893396 0.056686345 0.0007172951 -0.016017105 -0.01277011
0.055058002 -0.020985587 0.020519527 0.023218222 0.015536015 -0.0033932643 0.06302447 0.025337443
-0.011007255 0.012979517 0.05431235 0.03815006 0.008101386 0.035533793 -0.0036284276 -0.0058577717
0.0043128743 0.018407164 0.048091207 0.07133378 0.03279089 0.0022693856 -0.0048205354 -0.0013741065
0.047572635 0.05831646 0.0066833906 0.03467843 -0.0063209804 0.01371495 0.040740304 0.02247234
0.05283526 0.017610157 0.04195045 0.040341616 0.020426344 0.013223258 0.022901252 -0.02667253
-0.009886562 -0.0049284454 0.0709303 0.006945403 -0.015010255 0.040838543 -0.014430607 0.038310755
-0.015538764 0.0055978065 0.03287671 0.015238278 -0.0030809443 -0.014674214 -0.0011587194 0.014513858
00000000: 0bd8 77bd ae8d f63c 776f 463d 3779 1fbd
00000010: f12f 683d dc08 3c3a 4e36 83bc b939 51bc
00000020: 8084 613d f7e9 abbc 9118 a83c 2434 be3c
00000030: c58a 7e3c 8761 5ebb f912 813d 7890 cf3c
00000040: c657 34bc 0aa8 543c a076 5e3d 3d43 1c3d
00000050: adbb 043c e28b 113d eaca 6dbb 8df2 bfbb
00000060: 0353 8d3b 9fca 963c 49fb 443d 7217 923d
00000070: be4f 063d f9b9 143b 95f5 9dbb 5d1b b4ba
00000080: 86db 423d 3edd 6e3d 5800 db3b f80a 0e3d
00000090: 3a20 cfbb abb4 603c 4edf 263d ea17 b83c
000000a0: c969 583d 2d43 903c 3cd4 2b3d 403d 253d
000000b0: 2655 a73c 5da6 583c 689b bb3c 5a80 dabc
000000c0: 3ffb 21bc cc7e a1bb e843 913d 4396 e33b
000000d0: 93ed 75bc 5146 273d 5a6e 6cbc bdeb 1c3d
000000e0: 4d96 7ebc ce6d b73b bba9 063d f8a9 793c
000000f0: abe9 49bb 1d6c 70bc 2ce0 97ba 88cb 6d3c

running_mean f4 [64]
0.30186886 -0.12074052 0.041751113 0.42755106 -0.19540486 0.08971271 0.23609097 0.31137577
-0.1028467 0.4732671 -0.1495405 0.08858704 -0.14186235 0.2316045 -0.14490141 -0.014841885
0.17033039 0.1557034 -0.045307208 -0.05292889 0.060762152 -0.19778502 0.18507726 0.41521716
0.27846417 -0.27108732 0.05123383 -0.011556009 -0.2644405 -0.04856918 0.012591013 0.35082787
-0.20997947 -0.1022699 0.30819312 -0.21709943 0.25550637 0.14281166 -0.10415152 -0.044332504
-0.15029038 -0.09034241 -0.043472808 -0.11571402 -0.12952986 -0.03531884 -0.039045315 0.36742938
0.06176568 0.33435005 -0.21000294 0.25536117 0.22226138 -0.10593399 0.12049882 -0.020414669
0.2891907 0.25990537 -0.2951518 -0.11398894 0.15271746 0.18053114 0.20171735 -0.1126789
00000000: 8e8e 9a3e ce46 f7bd 3703 2b3d f9e7 da3e
00000010: 3618 48be 4cbb b73d d5c1 713e a56c 9f3e
00000020: 4aa1 d2bd 1150 f23e 2521 19be 1f6d b53d
00000030: 5d44 11be bb29 6d3e 0961 14be 612b 73bc
00000040: 176b 2e3e b670 1f3e 0d94 39bd f7cb 58bd
00000050: bce1 783d 2888 4abe e584 3d3e 5897 d43e
00000060: db92 8e3e f5cb 8abe 91da 513d 6a55 3dbc
00000070: bf64 87be 7af0 46bd 894a 4e3c b69f b33e
00000080: dc04 57be e272 d1bd 7dcb 9d3e 504f 5ebe
00000090: bbd1 823e 383d 123e 644d d5bd 0096 35bd
000000a0: b9e5 19be 7105 b9bd 8b10 32bd 79fb ecbd
000000b0: 7aa3 04be 7daa 10bd fbed 1fbd b41f bc3e
000000c0: 02fe 7c3d ee2f ab3e 030b 57be b3be 823e
000000d0: 7d98 633e ebf3 d8bd 16c8 f63d aa3c a7bc
000000e0: ce10 943e 5112 853e 231e 97be 0973 e9bd
000000f0: f761 1c3e 28dd 383e fe8e 4e3e 32c4 e6bd

running_var f4 [64]
0.4999467 0.31219113 0.31978926 0.46942797 0.2669573 0.46168202 0.48896533 0.3267096
0.28742474 0.41613662 0.34823933 0.38479123 0.40100828 0.34165108 0.2764261 0.46659565
0.2561262 0.40645596 0.26583508 0.18030313 0.4688468 0.26751038 0.2502687 0.40502554
0.3483587 0.48040164 0.29847762 0.2229418 0.2381456 0.34320885 0.47398362 0.24760278
0.33985743 0.37615693 0.63354075 0.29087952 0.52149045 0.37267566 0.3366652 0.34314555
0.32910162 0.2975052 0.28049073 0.24797489 0.22890453 0.5072937 0.35192016 0.31912756
0.36861923 0.35269347 0.23118407 0.2820781 0.37518468 0.31187358 0.3508777 0.4943276
0.43095824 0.34242842 0.42105326 0.40688404 0.38008824 0.3618645 0.46529907 0.25702512
00000000: 04f9 ff3e 84d7 9f3e 6bbb a33e dd58 f03e
00000010: a1ae 883e 9661 ec3e aa59 fa3e 7b46 a73e
00000020: 5629 933e dc0f d53e 6d4c b23e 5b03 c53e
00000030: f550 cd3e e4ec ae3e b987 8d3e a0e5 ee3e
00000040: f922 833e ff1a d03e 891b 883e 62a1 383e
00000050: b00c f03e 1ff7 883e 3823 803e 825f cf3e
00000060: 125c b23e 34f7 f53e 0fd2 983e db4a 643e
00000070: 71dc 733e 12b9 af3e fbad f23e 958b 7d3e
00000080: cb01 ae3e a497 c03e ba2f 223f 29ee 943e
00000090: 6680 053f 58cf be3e 625f ac3e c6b0 af3e
000000a0: 0280 a83e 9a52 983e 7b9c 8f3e 21ed 7d3e
000000b0: f365 6a3e 00de 013f e12e b43e b064 a33e
000000c0: a9bb bc3e 3d94 b43e 84bb 6c3e 8a6c 903e
000000d0: 3518 c03e e5ad 9f3e 3ea6 b33e 8218 fd3e
000000e0: 8fa6 dc3e c752 af3e 4b94 d73e 1b53 d03e
000000f0: ed9a c23e 4e46 b93e ae3b ee3e cc98 833e

weight f4 [64, 32, 4, 4]
-0.023034984 -0.01821789 0.026948612 0.023356538 -0.02530942 0.03264983 0.026545051 0.01317474
-0.023478478 0.050470896 -0.008696166 0.023206783 0.009590577 0.002751733 -0.01754528 -0.0026771117
-0.032988675 -0.026519228 -0.0071422393 -0.016705235 0.049050916 0.0020403734 0.019726962 0.039959446
0.025864076 0.033549875 0.026503984 -0.017243367 -0.0077675465 0.034325264 0.0005228557 -0.0031803567
-0.017181408 -0.0099039525 -0.0436515 -0.010523281 -0.0072049643 0.019787718 -0.021845281 -0.027696991
0.03279503 -0.02961254 -0.03149334 -0.010970434 -0.0025335457 0.0112838745 -0.0023180454 0.041189082
0.021862905 -0.005002605 -0.0072447825 0.038155098 -0.021957865 0.041784834 0.034501586 0.021125257
-0.0031027163 0.03640598 0.018890364 0.003236342 0.035458833 -0.034510758 -0.032594904 0.013687298
-0.022431457 -0.0082131475 0.0068714214 -0.02053735 -0.021791317 -0.017147068 -0.001472084 -0.045292243
0.02148719 -0.013619 0.021016615 0.035191987 0.008173395 -0.026075931 0.0129098045 0.010074618
0.024344122 0.012999959 0.025077986 0.034578606 0.011519929 -0.012589836 0.030093603 0.026102545
0.013640581 0.047101676 0.04171936 0.01175131 -0.020381048 0.031611536 -0.022944465 -0.029959608
0.042866882 0.017446738 0.03477355 -0.043974638 0.03451587 0.04194825 0.03429512 0.009806245
-0.010865319 0.009623976 0.047872562 -0.03691847 0.031589925 0.029451817 0.016385082 0.02396529
0.0133681325 0.0069793207 -0.029308533 -0.021983214 -0.03776753 0.048564762 -0.031295344 0.03825425
0.017115299 -0.044222586 -0.034028433 -0.0075571304 0.010981113 0.022729265 -0.019960975 0.02176423
0.01369449 0.01696984 0.024172338 0.037311845 -0.019456964 0.024291705 -0.02181776 0.033284724
-0.010504287 0.0032127844 0.022916168 0.0007900305 -0.0106306095 0.03073263 -0.022429433 -0.03026783
-0.025072481 -0.01598643 0.010549428 0.033996478 0.010473178 0.008510578 -0.0006696694 -0.021964215
0.043033667 0.01741874 0.024227895 -0.006628603 -0.023444502 -0.007709667 -0.013147319 0.020172453
-0.049025584 -0.011963898 -0.012060028 0.00441695 -0.020868655 -0.01196335 0.01676473 -0.027389672
-0.02453978 -0.024500167 0.00057341345 -0.024210138 -0.046530932 0.029787326 -0.01723862 0.02894593
0.027654368 0.019037578 0.04704673 -0.0030047845 0.0022754907 -0.045313362 -0.043250393 0.012632583
-0.022962196 -0.00035125238 0.045077585 -0.0076612704 0.015475732 -0.034048233 0.0013206385 0.03734088
-0.0023918573 0.0012281699 -0.025118768 -0.013498011 0.03612354 -0.03644394 -0.032370783 0.019318147
0.011428981 0.031218212 0.04010205 -0.0075002876 0.0059567834 0.018890936 -0.037454203 -0.01143646
0.013941203 0.0011050585 -0.03061025 -0.016988145 -0.013826435 0.044044666 -0.02674913 0.016208181
0.023349939 0.044607997 0.02944924 0.04994618 -0.011068481 -0.027245516 0.01097506 -0.02607212
-0.04293712 -0.00035172497 0.035307057 -0.044274848 0.010175586 -0.0007745272 -0.005409819 -0.02753844
0.016830588 -0.046627507 0.023679506 0.020100022 -0.03544038 0.023648633 0.041402042 0.023068752
0.03853322 0.036454476 0.012364544 -0.044220064 0.021355549 0.00064779766 0.033435263 -0.005067103
0.0018957598 -0.020093968 -0.0072039235 -0.007994747 -0.008888867 -0.012356285 0.011463989 0.03111835
00000000: ddb3 bcbc af3d 95bc 56c3 dc3c 3656 bf3c
00000010: b355 cfbc d4bb 053d 0275 d93c ddda 573c
00000020: f055 c0bc 92ba 4e3d 5d7a 0ebc 271c be3c
00000030: cc21 1d3c 6b56 343b 1ebb 8fbc 7b72 2fbb
00000040: 221f 07bd da3e d9bc 7209 eabb 6bd9 88bc
00000050: 9de9 483d c9b7 053b 709a a13c 84ac 233d
00000060: e6e0 d33c 986b 093d e21e d93c f641 8dbc
00000070: e786 febb a698 0c3d 4110 093a 886d 50bb
00000080: 06c0 8cbc 3044 22bc eacb 32bd d769 2cbc
00000090: 9f17 ecbb da19 a23c e0f4 b2bc cde4 e2bc
000000a0: 1554 063d ff95 f2bc 29ff 00bd 56bd 33bc
000000b0: d809 26bb 00e0 383c 59ea 17bb e2b5 283d
000000c0: d619 b33c e4ec a3bb a465 edbb 8548 1c3d
000000d0: fbe0 b3bc 9326 2b3d 8951 0d3d e00e ad3c
000000e0: f156 4bbb 701e 153d f7bf 9a3c cf18 543b
000000f0: 483d 113d 275b 0dbd 3c82 05bd b040 603c
00000100: 2dc2 b7bc 7090 06bc a929 e13b f23d a8bc
00000110: b483 b2bc 0278 8cbc f1f2 c0ba 5c84 39bd
00000120: e705 b03c 3a22 5fbc 092b ac3c 7925 103d
00000130: b4e9 053c 319d d5bc a583 533c 0310 253c
00000140: 536d c73c c8fd 543c 5970 cd3c 4ca2 0d3d
00000150: 16be 3c3c 9945 4ebc dc86 f63c 01d5 d53c
00000160: be7c 5f3c b0ed 403d ebe1 2a3d 9188 403c
00000170: 28f6 a6bc 197b 013d 08f6 bbbc da6d f5bc
00000180: 2f95 2f3d 76ec 8e3c b66e 0e3d c01e 34bd
00000190: 8360 0d3d eed1 2b3d 0a79 0c3d 5faa 203c
000001a0: 7304 32bc e2ad 1d3c 0516 443d d237 17bd
000001b0: 7064 013d f044 f13c 023a 863c db52 c43c
000001c0: 0306 5b3c c9b2 e43b 7318 f0bc 2416 b4bc
000001d0: 20b2 1abd d8eb 463d 8c2f 00bd 7db0 1c3d
000001e0: 6235 8c3c be22 35bd 6661 0bbd cea1 f7bb
000001f0: 20ea 333c b932 ba3c 3385 a3bc e64a b23c
00000200: db5e 603c 5504 8b3c 1105 c63c 4ed4 183d
00000210: 3664 9fbc 66ff c63c 29bb b2bc 9055 083d
00000220: 2c1a 2cbc 948d 523b b0ba bb3c 0d1a 4f3a
00000230: 022c 2ebc ffc2 fb3c eebd b7bc 3df4 f7bc
00000240: ce64 cdbc f9f5 82bc 82d7 2c3c e43f 0b3d
00000250: b197 2b3c f46f 0b3c c18c 2fba 4cee b3bc
00000260: 1244 303d bfb1 8e3c 9479 c63c c134 d9bb
00000270: af0e c0bc 60a1 fcbb da67 57bc b340 a53c
00000280: 0dcf 48bd 3a04 44bc 6c97 45bc 10bc 903b
00000290: bef4 aabc ed01 44bc 3056 893c 4e60 e0bc
000002a0: a607 c9bc 93b4 c8bc 2051 163a 5754 c6bc
000002b0: 3897 3ebd 8d04 f43c 0238 8dbc 0420 ed3c
000002c0: 6a8b e23c b2f4 9b3c 12b4 403d ebeb 44bb
000002d0: 6620 153b 819a 39bd 5327 31bd e5f8 4e3c
000002e0: 371b bcbc 4c28 b8b9 46a3 383d 650b fbbb
000002f0: ed8d 7d3c 2976 0bbd 4619 ad3a c0f2 183d
00000300: b5c0 1cbb 8bfa a03a e0c5 cdbc c326 5dbc
00000310: 47f6 133d 3e46 15bd 3a97 04bd 1741 9e3c
00000320: 9f40 3b3c 56bd ff3c 0c42 243d f9c4 f5bb
00000330: 1f31 c33b 2ac1 9a3c 9469 19bd fd5f 3bbc
00000340: a569 643c 9cd7 903a 59c2 fabc b92a 8bbc
00000350: 4688 62bc 2e68 343d fe20 dbbc 05c7 843c
00000360: 5f48 bf3c e0b6 363d 883f f13c 5e94 4c3d
00000370: 9358 35bc fd31 dfbc bdd0 333c 3395 d5bc
00000380: d5de 2fbd ba67 b8b9 229e 103d 8b59 35bd
00000390: 80b7 263c a409 4bba da44 b1bb 4b98 e1bc
000003a0: 4de0 893c 7cfc 3ebd 86fb c13c cda8 a43c
000003b0: ef29 11bd c7ba c13c 3095 293d aefa bc3c
000003c0: 02d5 1d3d 4a51 153d a894 4a3c 1920 35bd
000003d0: d5f1 ae3c f7d0 293a 6af3 083d f109 a6bb
000003e0: 257b f83a 1b9c a4bc e40e ecbb 66fc 02bc
000003f0: 9ca2 11bc 0472 4abc 74d3 3b3c e9eb fe3c

bias f4 [32]
-0.011947159 -0.022888916 0.0411359 -0.025907759 -0.014463924 -0.012121819 -0.015250806 -0.0013388643
-0.020145215 0.0010884445 -0.01331661 -0.02367583 0.03410507 0.021991 0.027401304 -0.043268345
0.0076855267 0.026231863 -0.008699807 -0.029873053 -0.0037740977 0.040032815 -0.011419764 0.0063631465
-0.00046215195 0.009115195 0.034583736 0.017513255 -0.0072758 -0.021639047 -0.006105229 0.018231755
00000000: 04be 43bc 8981 bbbc 1e7e 283d 823c d4bc
00000010: 18fa 6cbc 989a 46bc 84de 79bc d57c afba
00000020: 9407 a5bc 23aa 8e3a e92d 5abc d0f3 c1bc
00000030: c2b1 0b3d 7826 b43c b378 e03c 263a 31bd
00000040: dfd6 fb3b 34e4 d63c a389 0ebc 55b8 f4bc
00000050: da56 77bb 73f9 233d f619 3bbc f181 d03b
00000060: fc4c f2b9 e657 153c ada7 0d3d f577 8f3c
00000070: d669 eebb 5f44 b1bc 5f0e c8bb c35a 953c

weight f4 [32]
1.0170628 0.9908792 0.98720026 0.9995578 1.0072893 0.9972578 0.98831147 0.9872894
1.0009375 0.9726928 0.98639536 0.9942523 1.0067316 1.0169053 1.0094755 0.99718124
0.98781157 1.0063852 1.0124696 0.9898362 1.0104972 0.9963054 0.9933111 1.0012946
0.9913081 1.0000397 1.0024827 0.97474736 0.9891011 0.98927295 0.99750644 0.9847877
00000000: 1d2f 823f 42aa 7d3f 28b9 7c3f 05e3 7f3f
00000010: dbee 803f 4a4c 7f3f fb01 7d3f 00bf 7c3f
00000020: b81e 803f 6502 793f 6884 7c3f 5287 7e3f
00000030: 95dc 803f f429 823f 7e36 813f 4547 7f3f
00000040: 38e1 7c3f 3bd1 803f 9b98 813f e865 7d3f
00000050: f957 813f df0d 7f3f a349 7e3f 6c2a 803f
00000060: 5ec6 7d3f 4d01 803f 5a51 803f 0b89 793f
00000070: bb35 7d3f fe40 7d3f 955c 7f3f 0c1b 7c3f

bias f4 [32]
-0.020271217 -0.029690651 0.00804684 0.010592498 0.009763721 0.0048714685 -0.019861614 -0.00819794
0.003098461 0.0004092937 0.00085275027 -0.013362397 0.008831543 -0.043017402 0.06047771 0.01422966
-0.012705579 -0.013061087 0.056182604 0.012609902 0.060018547 0.016800005 -0.012791557 0.009717117
-0.02239781 -0.0022312093 -0.027217932 -0.029142343 0.009540384 -0.00823605 0.011535971 -0.02268554
00000000: d30f a6bc cf39 f3bc e5d6 033c 288c 2d3c
00000010: 04f8 1f3c d7a0 9f3b d3b4 a2bc a750 06bc
00000020: 8d0f 4b3b 7896 d639 1a8b 5f3a f5ed 5abc
00000030: 2db2 103c 0433 30bd 7ab7 773d 8523 693c
00000040: 102b 50bc 2bfe 55bc bb1f 663d c399 4e3c
00000050: 02d6 753d 2aa0 893c ae93 51bc 8b34 1f3c
00000060: 9d7b b7bc 7b39 12bb 24f8 debc ecbb eebc
00000070: 454f 1c3c 7ff0 06bc 5f01 3d3c 07d7 b9bc

running_mean f4 [32]
0.14410225 0.04831347 0.0052151904 -0.052437466 0.06716191 0.10252799 -0.06539814 -0.08442956
0.10716956 0.27814025 -0.1683202 0.091004334 0.2569909 0.15844968 0.0031244655 -0.040887
-0.037647836 0.17664069 -0.01263554 -0.017769257 -0.0016375448 0.036765754 0.078139804 0.07315376
0.15268795 0.11358294 0.24767224 -0.028557405 -0.050912373 -0.05305464 -0.009699923 0.008801741
00000000: 8a8f 133e 58e4 453d 30e4 aa3b abc8 56bd
00000010: 2f8c 893d 32fa d13d 76ef 85bd 68e9 acbd
00000020: b77b db3d 6668 8e3e 215c 2cbe 7b60 ba3d
00000030: 5094 833e a240 223e d5c3 4c3b 2079 27bd
00000040: 9e34 1abd 4ce1 343e 4c05 4fbc d590 91bc
00000050: e3a2 d6ba b097 163d c307 a03d a3d1 953d
00000060: 3b5a 1c3e 2c9e e83d cb9d 7d3e 38f1 e9bc
00000070: 7e89 50bd d24f 59bd 6dec 1ebc 2d35 103c

running_var f4 [32]
0.4840456 0.49893895 0.2332067 0.22395164 0.33906385 0.47689688 0.53848493 0.458984
0.5179583 0.368481 0.5073585 0.6281951 0.71703416 0.47882456 0.18474966 0.18464698
0.5091975 0.59806466 0.23143028 0.33743998 0.10367124 0.22856294 0.66394794 0.40463996
0.62885135 0.6305344 0.59344965 0.4919974 0.29229552 0.25372484 0.18494467 0.4824853
00000000: d3d4 f73e ed74 ff3e bdcd 6e3e 9453 653e
00000010: c799 ad3e d42b f43e 26da 093f f3ff ea3e
00000020: ea98 043f 8ba9 bc3e 3fe2 013f 65d1 203f
00000030: 8d8f 373f 7e28 f53e 042f 3d3e 1914 3d3e
00000040: c45a 023f c41a 193f 0ffc 6c3e efc4 ac3e
00000050: 9651 d43d 670c 6a3e 7ef8 293f f82c cf3e
00000060: 67fc 203f b46a 213f 51ec 173f 15e7 fb3e
00000070: c2a7 953e 39e8 813e 2362 3d3e 5008 f73e

weight f4 [32, 16, 4, 4]
0.043276906 -0.036032815 0.023790155 0.027590686 0.06818385 0.0039527705 0.057452496 0.006099999
-0.05485708 0.015529254 0.029282989 -0.017532129 0.019235948 0.022486638 -0.032366257 0.026202543
0.016833264 0.059573215 0.05250197 -0.030749949 -0.021038398 0.022095624 -0.032156937 0.009032938
0.016205931 -0.020925041 0.021919837 -0.01784033 0.014818422 -0.043329053 -0.048357874 -0.008844828
0.06831578 -0.05336168 -0.06610459 0.012940608 -0.023432516 0.053360663 0.055122707 0.051908143
0.05282333 -0.0032158669 0.021282496 0.028291319 -0.077554576 -0.023898866 0.020840123 0.030763017
-0.011981466 0.03975849 -0.015858447 -0.024029993 0.020756297 0.00013516127 0.061999507 -0.038215857
-0.02719956 -0.0027801264 0.02242563 -0.05751663 0.005781865 0.04611772 -0.034118038 -0.020998646
-0.040968325 0.08973796 0.035064444 0.020077467 0.036499906 0.010125502 0.06157021 -0.024665205
-0.020136539 -0.045396708 -0.003780466 0.052771583 -0.024872035 0.015203424 -0.024495255 0.044101663
0.06585385 0.043296564 0.045142837 0.06442587 -0.002539062 0.039578736 0.0038159012 0.0393013
0.012329698 0.07219703 0.010947057 0.010040844 0.03384413 -0.009799048 -0.02171174 -0.04766713
0.021096284 0.035238363 -0.02009363 0.043920808 0.053444088 -0.024227416 0.015214851 0.033531275
-0.02015222 -0.005309795 0.0059070433 -0.008211674 -0.049852584 -0.021902042 0.05792587 -0.040826455
-0.024671732 0.06027311 -0.05883259 -0.003686112 -0.055314507 0.048453756 0.021273486 0.058117576
0.013534444 -0.0026149054 -0.016518228 0.0049089105 -0.041253205 -0.023489354 -0.013364203 -0.01274757
0.025849411 -0.03569386 -0.040112708 -0.02024853 -0.054682296 0.048176147 0.03911449 -0.033019543
0.052917648 -0.031327732 -0.052236393 0.024388492 0.0038184782 0.011804705 0.074725956 -0.010159495
0.02007805 -0.06134075 0.055711176 -0.0378983 -0.0032020635 -0.0025145088 -0.032053426 0.016422844
-0.065092154 0.005928136 0.005115976 -0.022537673 -0.020005057 -0.04648183 0.020871976 0.0016131941
-0.015219014 -0.023053098 0.058265805 0.0041241953 -0.049706686 -0.010894833 -0.058440905 -0.07788677
0.0029894498 -0.0049667177 0.049083058 -0.039906796 -0.049480118 0.038077973 -0.030316044 -7.855605e-05
0.025013765 0.057618298 0.06502389 -0.0617693 0.0756637 0.033977427 0.0050051156 -0.04243362
-0.007921118 0.0320291 0.03871478 0.0024298558 -0.021794187 0.03788833 0.018478284 0.040213197
0.017849546 -0.004977888 -0.035374906 0.047277197 0.040054917 -0.061065674 0.030969167 -0.047255892
-0.02618107 -0.05336904 -0.06510029 -0.0274693 0.017550975 -0.029991312 0.008185347 0.014932834
-0.03804438 -0.017813882 -0.04185167 -0.03462722 -0.012981968 -0.024069455 -0.020019844 0.021576073
0.042573545 0.00990406 -0.019291515 0.031945437 0.046797283 -0.06794207 0.01175896 -0.0035588841
-0.06276864 0.032696966 -0.002633855 0.0076755052 -0.07738606 0.04012208 -0.072593026 0.014728132
-0.04224529 -0.008669977 -0.01005333 -0.0028820352 -0.013657324 -0.0024413113 -0.042867035 0.021045223
0.040753257 -0.03946142 -0.03271229 -0.060638424 0.07406416 0.02517224 0.05648451 -0.012872629
-0.020320723 -0.0071819816 -0.024786608 -0.023254067 0.051248144 -0.027505834 0.041796528 -0.027458956
00000000: 2043 313d 2597 13bd 92e3 c23c dd05 e23c
00000010: f9a3 8b3d 3e86 813b 4f53 6b3d 80e2 c73b
00000020: d1b1 60bd 6a6e 7e3c e1e2 ef3c 8a9f 8fbc
00000030: b594 9d3c e635 b83c 7b92 04bd b7a6 d63c
00000040: eae5 893c 0b03 743d 4e0c 573d 51e7 fbbc
00000050: b858 acbc e201 b53c feb6 03bd e3fe 133c
00000060: 4dc2 843c fe6a abbc 3b91 b33c e225 92bc
00000070: f7c8 723c ce79 31bd e812 46bd e6e9 10bc
00000080: 25e9 8b3d c791 5abd d861 87bd d804 543c
00000090: 8cf5 bfbc b690 5a3d 59c8 613d a29d 543d
000000a0: 475d 583d 4bc1 52bb a158 ae3c 32c3 e73c
000000b0: efd4 9ebd 8ec7 c3bc e8b8 aa3c b902 fc3c
000000c0: e94d 44bc ccd9 223d 93e9 81bc 8cda c4bc
000000d0: 1c09 aa3c 14ba 0d39 32f3 7d3d 3b88 1cbd
000000e0: 9dd1 debc c832 36bb f4b5 b73c 8f96 6bbd
000000f0: cd75 bd3b efe5 3c3d 5bbf 0bbd 5a05 acbc
00000100: 67ce 27bd 89c8 b73d bc9f 0f3d 8079 a43c
00000110: ed80 153d 6fe5 253c 0b31 7c3d af0e cabc
00000120: 62f5 a4bc e6f1 39bd b2c1 77bb 0427 583d
00000130: 70c0 cbbc c817 793c 46aa c8bc f2a3 343d
00000140: 62de 863d bd57 313d b2e7 383d b6f1 833d
00000150: 6466 26bb 501d 223d 3314 7a3b 66fa 203d
00000160: 8002 4a3c 09dc 933d 495b 333c 5a82 243c
00000170: 24a0 0a3d 308c 20bc d2dc b1bc 9c3e 43bd
00000180: 1dd2 ac3c 1a56 103d 659b a4bc 4ee6 333d
00000190: 30e8 5a3d 9378 c6bc b647 793c 1758 093d
000001a0: 4516 a5bc cafd adbb df8f c13b 428a 06bc
000001b0: 3932 4cbd e96b b3bc ad43 6d3d a439 27bd
000001c0: 5f1c cabc f0e0 763d 71fa 70bd b292 71bb
000001d0: 7791 62bd 7277 463d bc45 ae3c b20c 6e3d
000001e0: 93bf 5d3c d55e 2bbb 3c51 87bc edda a03b
000001f0: 1ff9 28bd bf6c c0bc 88f5 5abc 2fdb 50bc
00000200: 25c2 d33c ba33 12bd 394d 24bd 3fe0 a5bc
00000210: 8bfa 5fbd 5a54 453d 8436 203d 803f 07bd
00000220: 2dc0 583d 8251 00bd d4f5 55bd 60ca c73c
00000230: 6f3f 7a3b 8568 413c ec09 993d 0374 26bc
00000240: b97a a43c 7040 7bbd 6731 643d 3f3b 1bbd
00000250: b6d9 51bb 75ca 24bb 744a 03bd 3389 863c
00000260: 094f 85bd cf40 c23b eba3 a73b eda0 b8bc
00000270: a5e1 a3bc bb63 3ebd b5fb aa3c d071 d33a
00000280: 2c59 79bc dad9 bcbc 20a8 6e3d 4224 873b
00000290: 3d99 4bbd 3e80 32bc bb5f 6fbd 1983 9fbd
000002a0: a5ea 433b d9bf a2bb 510b 493d 4f75 23bd
000002b0: aaab 4abd a6f7 1b3d 5a59 f8bc 75be a4b8
000002c0: abe9 cc3c 2a01 6c3d 3f2b 853d ce01 7dbd
000002d0: 92f5 9a3d ea2b 0b3d f401 a43b e0ce 2dbd
000002e0: 94c7 01bc f230 033d 6493 1e3d 373e 1f3b
000002f0: b989 b2bc cb30 1b3d c55f 973c 98b6 243d
00000300: 3639 923c 8d1d a3bb 47e5 10bd bca5 413d
00000310: a010 243d 0020 7abd 0db3 fd3c 658f 41bd
00000320: af79 d6bc 7f99 5abd 4d53 85bd 4c07 e1bc
00000330: 10c7 8f3c 57b0 f5bc d51b 063c d8a8 743c
00000340: 6cd4 1bbd 6bee 91bc a86c 2bbd 46d5 0dbd
00000350: 52b2 54bc 4e2d c5bc a800 a4bc 4ec0 b03c
00000360: 9961 2e3d a344 223c 3d09 9ebc 38d9 023d
00000370: 82ae 3f3d 3625 8bbd a7a8 403c 2b3c 69bb
00000380: d88c 80bd 41ed 053d c19c 2cbb ce82 fb3b
00000390: 957c 9ebd 0d57 243d a7ab 94bd 434e 713c
000003a0: 6609 2dbd 850c 0ebc b9b6 24bc 87e0 3cbb
000003b0: f8c2 5fbc 68fe 1fbb 5895 2fbd 0867 ac3c
000003c0: e3ec 263d 4ca2 21bd 52fd 05bd ff5f 78bd
000003d0: f3ae 973d 0336 ce3c 4d5c 673d b8e7 52bc
000003e0: a577 a6bc d456 ebbb 490d cbbc 507f bebc
000003f0: 93e9 513d ea53 e1bc d632 2b3d 9bf1 e0bc

bias f4 [16]
-0.040642034 -0.036982875 -0.04984172 0.038093902 0.047203243 0.04947792 0.033706293 0.010239014
0.046377122 -0.05138909 -0.01838544 -0.015662372 0.023661032 -0.03046068 0.047922734 -0.04648838
00000000: 4378 26bd 5b7b 17bd d526 4cbd 5a08 1c3d
00000010: 3058 413d 5ca9 4a3d 9c0f 0a3d 8ac1 273c
00000020: f0f5 3d3d 5e7d 52bd 109d 96bc 604e 80bc
00000030: c8d4 c13c ad88 f9bc a14a 443d 996a 3ebd

weight f4 [16]
1.0000538 0.9980923 0.9766456 0.98116064 1.0184753 0.9978473 1.0202978 0.9941173
0.98566675 1.0076797 0.9822791 0.9993615 0.99481994 0.9927574 0.9773577 1.000398
00000000: c301 803f fa82 7f3f 7205 7a3f 582d 7b3f
00000010: 665d 823f ec72 7f3f 1e99 823f 797e 7e3f
00000020: a854 7c3f a6fb 803f a576 7b3f 28d6 7f3f
00000030: 85ac 7e3f 5925 7e3f 1d34 7a3f 0b0d 803f
